{"format": "graph-model", "generatedBy": "2.21.0", "convertedBy": "TensorFlow.js Converter v3.18.0", "signature": {"inputs": {"input_layer_1": {"name": "input_layer_1:0", "dtype": "DT_FLOAT", "tensorShape": {"dim": [{"size": "-1"}, {"size": "224"}, {"size": "224"}, {"size": "3"}]}}}, "outputs": {"output_0": {"name": "Identity:0", "dtype": "DT_FLOAT", "tensorShape": {"dim": [{"size": "-1"}, {"size": "2"}]}}}}, "modelTopology": {"node": [{"name": "StatefulPartitionedCall/functional_1/inception_v3_1/conv2d_85_1/convolution/merged_input", "op": "Const", "attr": {"dtype": {"type": "DT_FLOAT"}, "value": {"tensor": {"dtype": "DT_FLOAT", "tensorShape": {"dim": [{"size": "1"}, {"size": "1"}, {"size": "2048"}, {"size": "320"}]}}}}}, {"name": "StatefulPartitionedCall/functional_1/inception_v3_1/batch_normalization_85_1/batchnorm/sub", "op": "Const", "attr": {"dtype": {"type": "DT_FLOAT"}, "value": {"tensor": {"dtype": "DT_FLOAT", "tensorShape": {"dim": [{"size": "1"}, {"size": "1"}, {"size": "1"}, {"size": "320"}]}}}}}, {"name": "StatefulPartitionedCall/functional_1/inception_v3_1/conv2d_87_1/convolution/merged_input", "op": "Const", "attr": {"dtype": {"type": "DT_FLOAT"}, "value": {"tensor": {"dtype": "DT_FLOAT", "tensorShape": {"dim": [{"size": "1"}, {"size": "3"}, {"size": "384"}, {"size": "384"}]}}}}}, {"name": "StatefulPartitionedCall/functional_1/inception_v3_1/batch_normalization_87_1/batchnorm/sub", "op": "Const", "attr": {"dtype": {"type": "DT_FLOAT"}, "value": {"tensor": {"dtype": "DT_FLOAT", "tensorShape": {"dim": [{"size": "1"}, {"size": "1"}, {"size": "1"}, {"size": "384"}]}}}}}, {"name": "StatefulPartitionedCall/functional_1/inception_v3_1/conv2d_86_1/convolution/merged_input", "op": "Const", "attr": {"dtype": {"type": "DT_FLOAT"}, "value": {"tensor": {"dtype": "DT_FLOAT", "tensorShape": {"dim": [{"size": "1"}, {"size": "1"}, {"size": "2048"}, {"size": "384"}]}}}}}, {"name": "StatefulPartitionedCall/functional_1/inception_v3_1/batch_normalization_86_1/batchnorm/sub", "op": "Const", "attr": {"dtype": {"type": "DT_FLOAT"}, "value": {"tensor": {"dtype": "DT_FLOAT", "tensorShape": {"dim": [{"size": "1"}, {"size": "1"}, {"size": "1"}, {"size": "384"}]}}}}}, {"name": "StatefulPartitionedCall/functional_1/inception_v3_1/conv2d_88_1/convolution/merged_input", "op": "Const", "attr": {"dtype": {"type": "DT_FLOAT"}, "value": {"tensor": {"dtype": "DT_FLOAT", "tensorShape": {"dim": [{"size": "3"}, {"size": "1"}, {"size": "384"}, {"size": "384"}]}}}}}, {"name": "StatefulPartitionedCall/functional_1/inception_v3_1/batch_normalization_88_1/batchnorm/sub", "op": "Const", "attr": {"dtype": {"type": "DT_FLOAT"}, "value": {"tensor": {"dtype": "DT_FLOAT", "tensorShape": {"dim": [{"size": "1"}, {"size": "1"}, {"size": "1"}, {"size": "384"}]}}}}}, {"name": "StatefulPartitionedCall/functional_1/inception_v3_1/conv2d_91_1/convolution/merged_input", "op": "Const", "attr": {"dtype": {"type": "DT_FLOAT"}, "value": {"tensor": {"dtype": "DT_FLOAT", "tensorShape": {"dim": [{"size": "1"}, {"size": "3"}, {"size": "384"}, {"size": "384"}]}}}}}, {"name": "StatefulPartitionedCall/functional_1/inception_v3_1/batch_normalization_91_1/batchnorm/sub", "op": "Const", "attr": {"dtype": {"type": "DT_FLOAT"}, "value": {"tensor": {"dtype": "DT_FLOAT", "tensorShape": {"dim": [{"size": "1"}, {"size": "1"}, {"size": "1"}, {"size": "384"}]}}}}}, {"name": "StatefulPartitionedCall/functional_1/inception_v3_1/conv2d_89_1/convolution/merged_input", "op": "Const", "attr": {"dtype": {"type": "DT_FLOAT"}, "value": {"tensor": {"dtype": "DT_FLOAT", "tensorShape": {"dim": [{"size": "1"}, {"size": "1"}, {"size": "2048"}, {"size": "448"}]}}}}}, {"name": "StatefulPartitionedCall/functional_1/inception_v3_1/batch_normalization_89_1/batchnorm/sub", "op": "Const", "attr": {"dtype": {"type": "DT_FLOAT"}, "value": {"tensor": {"dtype": "DT_FLOAT", "tensorShape": {"dim": [{"size": "1"}, {"size": "1"}, {"size": "1"}, {"size": "448"}]}}}}}, {"name": "StatefulPartitionedCall/functional_1/inception_v3_1/conv2d_90_1/convolution/merged_input", "op": "Const", "attr": {"dtype": {"type": "DT_FLOAT"}, "value": {"tensor": {"dtype": "DT_FLOAT", "tensorShape": {"dim": [{"size": "3"}, {"size": "3"}, {"size": "448"}, {"size": "384"}]}}}}}, {"name": "StatefulPartitionedCall/functional_1/inception_v3_1/batch_normalization_90_1/batchnorm/sub", "op": "Const", "attr": {"dtype": {"type": "DT_FLOAT"}, "value": {"tensor": {"dtype": "DT_FLOAT", "tensorShape": {"dim": [{"size": "1"}, {"size": "1"}, {"size": "1"}, {"size": "384"}]}}}}}, {"name": "StatefulPartitionedCall/functional_1/inception_v3_1/conv2d_92_1/convolution/merged_input", "op": "Const", "attr": {"dtype": {"type": "DT_FLOAT"}, "value": {"tensor": {"dtype": "DT_FLOAT", "tensorShape": {"dim": [{"size": "3"}, {"size": "1"}, {"size": "384"}, {"size": "384"}]}}}}}, {"name": "StatefulPartitionedCall/functional_1/inception_v3_1/batch_normalization_92_1/batchnorm/sub", "op": "Const", "attr": {"dtype": {"type": "DT_FLOAT"}, "value": {"tensor": {"dtype": "DT_FLOAT", "tensorShape": {"dim": [{"size": "1"}, {"size": "1"}, {"size": "1"}, {"size": "384"}]}}}}}, {"name": "StatefulPartitionedCall/functional_1/inception_v3_1/conv2d_76_1/convolution/merged_input", "op": "Const", "attr": {"dtype": {"type": "DT_FLOAT"}, "value": {"tensor": {"dtype": "DT_FLOAT", "tensorShape": {"dim": [{"size": "1"}, {"size": "1"}, {"size": "1280"}, {"size": "320"}]}}}}}, {"name": "StatefulPartitionedCall/functional_1/inception_v3_1/batch_normalization_76_1/batchnorm/sub", "op": "Const", "attr": {"dtype": {"type": "DT_FLOAT"}, "value": {"tensor": {"dtype": "DT_FLOAT", "tensorShape": {"dim": [{"size": "1"}, {"size": "1"}, {"size": "1"}, {"size": "320"}]}}}}}, {"name": "StatefulPartitionedCall/functional_1/inception_v3_1/conv2d_78_1/convolution/merged_input", "op": "Const", "attr": {"dtype": {"type": "DT_FLOAT"}, "value": {"tensor": {"dtype": "DT_FLOAT", "tensorShape": {"dim": [{"size": "1"}, {"size": "3"}, {"size": "384"}, {"size": "384"}]}}}}}, {"name": "StatefulPartitionedCall/functional_1/inception_v3_1/batch_normalization_78_1/batchnorm/sub", "op": "Const", "attr": {"dtype": {"type": "DT_FLOAT"}, "value": {"tensor": {"dtype": "DT_FLOAT", "tensorShape": {"dim": [{"size": "1"}, {"size": "1"}, {"size": "1"}, {"size": "384"}]}}}}}, {"name": "StatefulPartitionedCall/functional_1/inception_v3_1/conv2d_77_1/convolution/merged_input", "op": "Const", "attr": {"dtype": {"type": "DT_FLOAT"}, "value": {"tensor": {"dtype": "DT_FLOAT", "tensorShape": {"dim": [{"size": "1"}, {"size": "1"}, {"size": "1280"}, {"size": "384"}]}}}}}, {"name": "StatefulPartitionedCall/functional_1/inception_v3_1/batch_normalization_77_1/batchnorm/sub", "op": "Const", "attr": {"dtype": {"type": "DT_FLOAT"}, "value": {"tensor": {"dtype": "DT_FLOAT", "tensorShape": {"dim": [{"size": "1"}, {"size": "1"}, {"size": "1"}, {"size": "384"}]}}}}}, {"name": "StatefulPartitionedCall/functional_1/inception_v3_1/conv2d_79_1/convolution/merged_input", "op": "Const", "attr": {"dtype": {"type": "DT_FLOAT"}, "value": {"tensor": {"dtype": "DT_FLOAT", "tensorShape": {"dim": [{"size": "3"}, {"size": "1"}, {"size": "384"}, {"size": "384"}]}}}}}, {"name": "StatefulPartitionedCall/functional_1/inception_v3_1/batch_normalization_79_1/batchnorm/sub", "op": "Const", "attr": {"dtype": {"type": "DT_FLOAT"}, "value": {"tensor": {"dtype": "DT_FLOAT", "tensorShape": {"dim": [{"size": "1"}, {"size": "1"}, {"size": "1"}, {"size": "384"}]}}}}}, {"name": "StatefulPartitionedCall/functional_1/inception_v3_1/conv2d_82_1/convolution/merged_input", "op": "Const", "attr": {"dtype": {"type": "DT_FLOAT"}, "value": {"tensor": {"dtype": "DT_FLOAT", "tensorShape": {"dim": [{"size": "1"}, {"size": "3"}, {"size": "384"}, {"size": "384"}]}}}}}, {"name": "StatefulPartitionedCall/functional_1/inception_v3_1/batch_normalization_82_1/batchnorm/sub", "op": "Const", "attr": {"dtype": {"type": "DT_FLOAT"}, "value": {"tensor": {"dtype": "DT_FLOAT", "tensorShape": {"dim": [{"size": "1"}, {"size": "1"}, {"size": "1"}, {"size": "384"}]}}}}}, {"name": "StatefulPartitionedCall/functional_1/inception_v3_1/conv2d_80_1/convolution/merged_input", "op": "Const", "attr": {"dtype": {"type": "DT_FLOAT"}, "value": {"tensor": {"dtype": "DT_FLOAT", "tensorShape": {"dim": [{"size": "1"}, {"size": "1"}, {"size": "1280"}, {"size": "448"}]}}}}}, {"name": "StatefulPartitionedCall/functional_1/inception_v3_1/batch_normalization_80_1/batchnorm/sub", "op": "Const", "attr": {"dtype": {"type": "DT_FLOAT"}, "value": {"tensor": {"dtype": "DT_FLOAT", "tensorShape": {"dim": [{"size": "1"}, {"size": "1"}, {"size": "1"}, {"size": "448"}]}}}}}, {"name": "StatefulPartitionedCall/functional_1/inception_v3_1/conv2d_81_1/convolution/merged_input", "op": "Const", "attr": {"dtype": {"type": "DT_FLOAT"}, "value": {"tensor": {"dtype": "DT_FLOAT", "tensorShape": {"dim": [{"size": "3"}, {"size": "3"}, {"size": "448"}, {"size": "384"}]}}}}}, {"name": "StatefulPartitionedCall/functional_1/inception_v3_1/batch_normalization_81_1/batchnorm/sub", "op": "Const", "attr": {"dtype": {"type": "DT_FLOAT"}, "value": {"tensor": {"dtype": "DT_FLOAT", "tensorShape": {"dim": [{"size": "1"}, {"size": "1"}, {"size": "1"}, {"size": "384"}]}}}}}, {"name": "StatefulPartitionedCall/functional_1/inception_v3_1/conv2d_83_1/convolution/merged_input", "op": "Const", "attr": {"dtype": {"type": "DT_FLOAT"}, "value": {"tensor": {"dtype": "DT_FLOAT", "tensorShape": {"dim": [{"size": "3"}, {"size": "1"}, {"size": "384"}, {"size": "384"}]}}}}}, {"name": "StatefulPartitionedCall/functional_1/inception_v3_1/batch_normalization_83_1/batchnorm/sub", "op": "Const", "attr": {"dtype": {"type": "DT_FLOAT"}, "value": {"tensor": {"dtype": "DT_FLOAT", "tensorShape": {"dim": [{"size": "1"}, {"size": "1"}, {"size": "1"}, {"size": "384"}]}}}}}, {"name": "StatefulPartitionedCall/functional_1/inception_v3_1/conv2d_70_1/convolution/merged_input", "op": "Const", "attr": {"dtype": {"type": "DT_FLOAT"}, "value": {"tensor": {"dtype": "DT_FLOAT", "tensorShape": {"dim": [{"size": "1"}, {"size": "1"}, {"size": "768"}, {"size": "192"}]}}}}}, {"name": "StatefulPartitionedCall/functional_1/inception_v3_1/batch_normalization_70_1/batchnorm/sub", "op": "Const", "attr": {"dtype": {"type": "DT_FLOAT"}, "value": {"tensor": {"dtype": "DT_FLOAT", "tensorShape": {"dim": [{"size": "1"}, {"size": "1"}, {"size": "1"}, {"size": "192"}]}}}}}, {"name": "StatefulPartitionedCall/functional_1/inception_v3_1/conv2d_71_1/convolution/merged_input", "op": "Const", "attr": {"dtype": {"type": "DT_FLOAT"}, "value": {"tensor": {"dtype": "DT_FLOAT", "tensorShape": {"dim": [{"size": "3"}, {"size": "3"}, {"size": "192"}, {"size": "320"}]}}}}}, {"name": "StatefulPartitionedCall/functional_1/inception_v3_1/batch_normalization_71_1/batchnorm/sub", "op": "Const", "attr": {"dtype": {"type": "DT_FLOAT"}, "value": {"tensor": {"dtype": "DT_FLOAT", "tensorShape": {"dim": [{"size": "1"}, {"size": "1"}, {"size": "1"}, {"size": "320"}]}}}}}, {"name": "StatefulPartitionedCall/functional_1/inception_v3_1/conv2d_72_1/convolution/merged_input", "op": "Const", "attr": {"dtype": {"type": "DT_FLOAT"}, "value": {"tensor": {"dtype": "DT_FLOAT", "tensorShape": {"dim": [{"size": "1"}, {"size": "1"}, {"size": "768"}, {"size": "192"}]}}}}}, {"name": "StatefulPartitionedCall/functional_1/inception_v3_1/batch_normalization_72_1/batchnorm/sub", "op": "Const", "attr": {"dtype": {"type": "DT_FLOAT"}, "value": {"tensor": {"dtype": "DT_FLOAT", "tensorShape": {"dim": [{"size": "1"}, {"size": "1"}, {"size": "1"}, {"size": "192"}]}}}}}, {"name": "StatefulPartitionedCall/functional_1/inception_v3_1/conv2d_73_1/convolution/merged_input", "op": "Const", "attr": {"dtype": {"type": "DT_FLOAT"}, "value": {"tensor": {"dtype": "DT_FLOAT", "tensorShape": {"dim": [{"size": "1"}, {"size": "7"}, {"size": "192"}, {"size": "192"}]}}}}}, {"name": "StatefulPartitionedCall/functional_1/inception_v3_1/batch_normalization_73_1/batchnorm/sub", "op": "Const", "attr": {"dtype": {"type": "DT_FLOAT"}, "value": {"tensor": {"dtype": "DT_FLOAT", "tensorShape": {"dim": [{"size": "1"}, {"size": "1"}, {"size": "1"}, {"size": "192"}]}}}}}, {"name": "StatefulPartitionedCall/functional_1/inception_v3_1/conv2d_74_1/convolution/merged_input", "op": "Const", "attr": {"dtype": {"type": "DT_FLOAT"}, "value": {"tensor": {"dtype": "DT_FLOAT", "tensorShape": {"dim": [{"size": "7"}, {"size": "1"}, {"size": "192"}, {"size": "192"}]}}}}}, {"name": "StatefulPartitionedCall/functional_1/inception_v3_1/batch_normalization_74_1/batchnorm/sub", "op": "Const", "attr": {"dtype": {"type": "DT_FLOAT"}, "value": {"tensor": {"dtype": "DT_FLOAT", "tensorShape": {"dim": [{"size": "1"}, {"size": "1"}, {"size": "1"}, {"size": "192"}]}}}}}, {"name": "StatefulPartitionedCall/functional_1/inception_v3_1/conv2d_75_1/convolution/merged_input", "op": "Const", "attr": {"dtype": {"type": "DT_FLOAT"}, "value": {"tensor": {"dtype": "DT_FLOAT", "tensorShape": {"dim": [{"size": "3"}, {"size": "3"}, {"size": "192"}, {"size": "192"}]}}}}}, {"name": "StatefulPartitionedCall/functional_1/inception_v3_1/batch_normalization_75_1/batchnorm/sub", "op": "Const", "attr": {"dtype": {"type": "DT_FLOAT"}, "value": {"tensor": {"dtype": "DT_FLOAT", "tensorShape": {"dim": [{"size": "1"}, {"size": "1"}, {"size": "1"}, {"size": "192"}]}}}}}, {"name": "StatefulPartitionedCall/functional_1/inception_v3_1/conv2d_60_1/convolution/merged_input", "op": "Const", "attr": {"dtype": {"type": "DT_FLOAT"}, "value": {"tensor": {"dtype": "DT_FLOAT", "tensorShape": {"dim": [{"size": "1"}, {"size": "1"}, {"size": "768"}, {"size": "192"}]}}}}}, {"name": "StatefulPartitionedCall/functional_1/inception_v3_1/batch_normalization_60_1/batchnorm/sub", "op": "Const", "attr": {"dtype": {"type": "DT_FLOAT"}, "value": {"tensor": {"dtype": "DT_FLOAT", "tensorShape": {"dim": [{"size": "1"}, {"size": "1"}, {"size": "1"}, {"size": "192"}]}}}}}, {"name": "StatefulPartitionedCall/functional_1/inception_v3_1/conv2d_61_1/convolution/merged_input", "op": "Const", "attr": {"dtype": {"type": "DT_FLOAT"}, "value": {"tensor": {"dtype": "DT_FLOAT", "tensorShape": {"dim": [{"size": "1"}, {"size": "1"}, {"size": "768"}, {"size": "192"}]}}}}}, {"name": "StatefulPartitionedCall/functional_1/inception_v3_1/batch_normalization_61_1/batchnorm/sub", "op": "Const", "attr": {"dtype": {"type": "DT_FLOAT"}, "value": {"tensor": {"dtype": "DT_FLOAT", "tensorShape": {"dim": [{"size": "1"}, {"size": "1"}, {"size": "1"}, {"size": "192"}]}}}}}, {"name": "StatefulPartitionedCall/functional_1/inception_v3_1/conv2d_62_1/convolution/merged_input", "op": "Const", "attr": {"dtype": {"type": "DT_FLOAT"}, "value": {"tensor": {"dtype": "DT_FLOAT", "tensorShape": {"dim": [{"size": "1"}, {"size": "7"}, {"size": "192"}, {"size": "192"}]}}}}}, {"name": "StatefulPartitionedCall/functional_1/inception_v3_1/batch_normalization_62_1/batchnorm/sub", "op": "Const", "attr": {"dtype": {"type": "DT_FLOAT"}, "value": {"tensor": {"dtype": "DT_FLOAT", "tensorShape": {"dim": [{"size": "1"}, {"size": "1"}, {"size": "1"}, {"size": "192"}]}}}}}, {"name": "StatefulPartitionedCall/functional_1/inception_v3_1/conv2d_63_1/convolution/merged_input", "op": "Const", "attr": {"dtype": {"type": "DT_FLOAT"}, "value": {"tensor": {"dtype": "DT_FLOAT", "tensorShape": {"dim": [{"size": "7"}, {"size": "1"}, {"size": "192"}, {"size": "192"}]}}}}}, {"name": "StatefulPartitionedCall/functional_1/inception_v3_1/batch_normalization_63_1/batchnorm/sub", "op": "Const", "attr": {"dtype": {"type": "DT_FLOAT"}, "value": {"tensor": {"dtype": "DT_FLOAT", "tensorShape": {"dim": [{"size": "1"}, {"size": "1"}, {"size": "1"}, {"size": "192"}]}}}}}, {"name": "StatefulPartitionedCall/functional_1/inception_v3_1/conv2d_64_1/convolution/merged_input", "op": "Const", "attr": {"dtype": {"type": "DT_FLOAT"}, "value": {"tensor": {"dtype": "DT_FLOAT", "tensorShape": {"dim": [{"size": "1"}, {"size": "1"}, {"size": "768"}, {"size": "192"}]}}}}}, {"name": "StatefulPartitionedCall/functional_1/inception_v3_1/batch_normalization_64_1/batchnorm/sub", "op": "Const", "attr": {"dtype": {"type": "DT_FLOAT"}, "value": {"tensor": {"dtype": "DT_FLOAT", "tensorShape": {"dim": [{"size": "1"}, {"size": "1"}, {"size": "1"}, {"size": "192"}]}}}}}, {"name": "StatefulPartitionedCall/functional_1/inception_v3_1/conv2d_65_1/convolution/merged_input", "op": "Const", "attr": {"dtype": {"type": "DT_FLOAT"}, "value": {"tensor": {"dtype": "DT_FLOAT", "tensorShape": {"dim": [{"size": "7"}, {"size": "1"}, {"size": "192"}, {"size": "192"}]}}}}}, {"name": "StatefulPartitionedCall/functional_1/inception_v3_1/batch_normalization_65_1/batchnorm/sub", "op": "Const", "attr": {"dtype": {"type": "DT_FLOAT"}, "value": {"tensor": {"dtype": "DT_FLOAT", "tensorShape": {"dim": [{"size": "1"}, {"size": "1"}, {"size": "1"}, {"size": "192"}]}}}}}, {"name": "StatefulPartitionedCall/functional_1/inception_v3_1/conv2d_66_1/convolution/merged_input", "op": "Const", "attr": {"dtype": {"type": "DT_FLOAT"}, "value": {"tensor": {"dtype": "DT_FLOAT", "tensorShape": {"dim": [{"size": "1"}, {"size": "7"}, {"size": "192"}, {"size": "192"}]}}}}}, {"name": "StatefulPartitionedCall/functional_1/inception_v3_1/batch_normalization_66_1/batchnorm/sub", "op": "Const", "attr": {"dtype": {"type": "DT_FLOAT"}, "value": {"tensor": {"dtype": "DT_FLOAT", "tensorShape": {"dim": [{"size": "1"}, {"size": "1"}, {"size": "1"}, {"size": "192"}]}}}}}, {"name": "StatefulPartitionedCall/functional_1/inception_v3_1/conv2d_67_1/convolution/merged_input", "op": "Const", "attr": {"dtype": {"type": "DT_FLOAT"}, "value": {"tensor": {"dtype": "DT_FLOAT", "tensorShape": {"dim": [{"size": "7"}, {"size": "1"}, {"size": "192"}, {"size": "192"}]}}}}}, {"name": "StatefulPartitionedCall/functional_1/inception_v3_1/batch_normalization_67_1/batchnorm/sub", "op": "Const", "attr": {"dtype": {"type": "DT_FLOAT"}, "value": {"tensor": {"dtype": "DT_FLOAT", "tensorShape": {"dim": [{"size": "1"}, {"size": "1"}, {"size": "1"}, {"size": "192"}]}}}}}, {"name": "StatefulPartitionedCall/functional_1/inception_v3_1/conv2d_68_1/convolution/merged_input", "op": "Const", "attr": {"dtype": {"type": "DT_FLOAT"}, "value": {"tensor": {"dtype": "DT_FLOAT", "tensorShape": {"dim": [{"size": "1"}, {"size": "7"}, {"size": "192"}, {"size": "192"}]}}}}}, {"name": "StatefulPartitionedCall/functional_1/inception_v3_1/batch_normalization_68_1/batchnorm/sub", "op": "Const", "attr": {"dtype": {"type": "DT_FLOAT"}, "value": {"tensor": {"dtype": "DT_FLOAT", "tensorShape": {"dim": [{"size": "1"}, {"size": "1"}, {"size": "1"}, {"size": "192"}]}}}}}, {"name": "StatefulPartitionedCall/functional_1/inception_v3_1/conv2d_50_1/convolution/merged_input", "op": "Const", "attr": {"dtype": {"type": "DT_FLOAT"}, "value": {"tensor": {"dtype": "DT_FLOAT", "tensorShape": {"dim": [{"size": "1"}, {"size": "1"}, {"size": "768"}, {"size": "192"}]}}}}}, {"name": "StatefulPartitionedCall/functional_1/inception_v3_1/batch_normalization_50_1/batchnorm/sub", "op": "Const", "attr": {"dtype": {"type": "DT_FLOAT"}, "value": {"tensor": {"dtype": "DT_FLOAT", "tensorShape": {"dim": [{"size": "1"}, {"size": "1"}, {"size": "1"}, {"size": "192"}]}}}}}, {"name": "StatefulPartitionedCall/functional_1/inception_v3_1/conv2d_51_1/convolution/merged_input", "op": "Const", "attr": {"dtype": {"type": "DT_FLOAT"}, "value": {"tensor": {"dtype": "DT_FLOAT", "tensorShape": {"dim": [{"size": "1"}, {"size": "1"}, {"size": "768"}, {"size": "160"}]}}}}}, {"name": "StatefulPartitionedCall/functional_1/inception_v3_1/batch_normalization_51_1/batchnorm/sub", "op": "Const", "attr": {"dtype": {"type": "DT_FLOAT"}, "value": {"tensor": {"dtype": "DT_FLOAT", "tensorShape": {"dim": [{"size": "1"}, {"size": "1"}, {"size": "1"}, {"size": "160"}]}}}}}, {"name": "StatefulPartitionedCall/functional_1/inception_v3_1/conv2d_52_1/convolution/merged_input", "op": "Const", "attr": {"dtype": {"type": "DT_FLOAT"}, "value": {"tensor": {"dtype": "DT_FLOAT", "tensorShape": {"dim": [{"size": "1"}, {"size": "7"}, {"size": "160"}, {"size": "160"}]}}}}}, {"name": "StatefulPartitionedCall/functional_1/inception_v3_1/batch_normalization_52_1/batchnorm/sub", "op": "Const", "attr": {"dtype": {"type": "DT_FLOAT"}, "value": {"tensor": {"dtype": "DT_FLOAT", "tensorShape": {"dim": [{"size": "1"}, {"size": "1"}, {"size": "1"}, {"size": "160"}]}}}}}, {"name": "StatefulPartitionedCall/functional_1/inception_v3_1/conv2d_53_1/convolution/merged_input", "op": "Const", "attr": {"dtype": {"type": "DT_FLOAT"}, "value": {"tensor": {"dtype": "DT_FLOAT", "tensorShape": {"dim": [{"size": "7"}, {"size": "1"}, {"size": "160"}, {"size": "192"}]}}}}}, {"name": "StatefulPartitionedCall/functional_1/inception_v3_1/batch_normalization_53_1/batchnorm/sub", "op": "Const", "attr": {"dtype": {"type": "DT_FLOAT"}, "value": {"tensor": {"dtype": "DT_FLOAT", "tensorShape": {"dim": [{"size": "1"}, {"size": "1"}, {"size": "1"}, {"size": "192"}]}}}}}, {"name": "StatefulPartitionedCall/functional_1/inception_v3_1/conv2d_54_1/convolution/merged_input", "op": "Const", "attr": {"dtype": {"type": "DT_FLOAT"}, "value": {"tensor": {"dtype": "DT_FLOAT", "tensorShape": {"dim": [{"size": "1"}, {"size": "1"}, {"size": "768"}, {"size": "160"}]}}}}}, {"name": "StatefulPartitionedCall/functional_1/inception_v3_1/batch_normalization_54_1/batchnorm/sub", "op": "Const", "attr": {"dtype": {"type": "DT_FLOAT"}, "value": {"tensor": {"dtype": "DT_FLOAT", "tensorShape": {"dim": [{"size": "1"}, {"size": "1"}, {"size": "1"}, {"size": "160"}]}}}}}, {"name": "StatefulPartitionedCall/functional_1/inception_v3_1/conv2d_55_1/convolution/merged_input", "op": "Const", "attr": {"dtype": {"type": "DT_FLOAT"}, "value": {"tensor": {"dtype": "DT_FLOAT", "tensorShape": {"dim": [{"size": "7"}, {"size": "1"}, {"size": "160"}, {"size": "160"}]}}}}}, {"name": "StatefulPartitionedCall/functional_1/inception_v3_1/batch_normalization_55_1/batchnorm/sub", "op": "Const", "attr": {"dtype": {"type": "DT_FLOAT"}, "value": {"tensor": {"dtype": "DT_FLOAT", "tensorShape": {"dim": [{"size": "1"}, {"size": "1"}, {"size": "1"}, {"size": "160"}]}}}}}, {"name": "StatefulPartitionedCall/functional_1/inception_v3_1/conv2d_56_1/convolution/merged_input", "op": "Const", "attr": {"dtype": {"type": "DT_FLOAT"}, "value": {"tensor": {"dtype": "DT_FLOAT", "tensorShape": {"dim": [{"size": "1"}, {"size": "7"}, {"size": "160"}, {"size": "160"}]}}}}}, {"name": "StatefulPartitionedCall/functional_1/inception_v3_1/batch_normalization_56_1/batchnorm/sub", "op": "Const", "attr": {"dtype": {"type": "DT_FLOAT"}, "value": {"tensor": {"dtype": "DT_FLOAT", "tensorShape": {"dim": [{"size": "1"}, {"size": "1"}, {"size": "1"}, {"size": "160"}]}}}}}, {"name": "StatefulPartitionedCall/functional_1/inception_v3_1/conv2d_57_1/convolution/merged_input", "op": "Const", "attr": {"dtype": {"type": "DT_FLOAT"}, "value": {"tensor": {"dtype": "DT_FLOAT", "tensorShape": {"dim": [{"size": "7"}, {"size": "1"}, {"size": "160"}, {"size": "160"}]}}}}}, {"name": "StatefulPartitionedCall/functional_1/inception_v3_1/batch_normalization_57_1/batchnorm/sub", "op": "Const", "attr": {"dtype": {"type": "DT_FLOAT"}, "value": {"tensor": {"dtype": "DT_FLOAT", "tensorShape": {"dim": [{"size": "1"}, {"size": "1"}, {"size": "1"}, {"size": "160"}]}}}}}, {"name": "StatefulPartitionedCall/functional_1/inception_v3_1/conv2d_58_1/convolution/merged_input", "op": "Const", "attr": {"dtype": {"type": "DT_FLOAT"}, "value": {"tensor": {"dtype": "DT_FLOAT", "tensorShape": {"dim": [{"size": "1"}, {"size": "7"}, {"size": "160"}, {"size": "192"}]}}}}}, {"name": "StatefulPartitionedCall/functional_1/inception_v3_1/batch_normalization_58_1/batchnorm/sub", "op": "Const", "attr": {"dtype": {"type": "DT_FLOAT"}, "value": {"tensor": {"dtype": "DT_FLOAT", "tensorShape": {"dim": [{"size": "1"}, {"size": "1"}, {"size": "1"}, {"size": "192"}]}}}}}, {"name": "StatefulPartitionedCall/functional_1/inception_v3_1/conv2d_40_1/convolution/merged_input", "op": "Const", "attr": {"dtype": {"type": "DT_FLOAT"}, "value": {"tensor": {"dtype": "DT_FLOAT", "tensorShape": {"dim": [{"size": "1"}, {"size": "1"}, {"size": "768"}, {"size": "192"}]}}}}}, {"name": "StatefulPartitionedCall/functional_1/inception_v3_1/batch_normalization_40_1/batchnorm/sub", "op": "Const", "attr": {"dtype": {"type": "DT_FLOAT"}, "value": {"tensor": {"dtype": "DT_FLOAT", "tensorShape": {"dim": [{"size": "1"}, {"size": "1"}, {"size": "1"}, {"size": "192"}]}}}}}, {"name": "StatefulPartitionedCall/functional_1/inception_v3_1/conv2d_41_1/convolution/merged_input", "op": "Const", "attr": {"dtype": {"type": "DT_FLOAT"}, "value": {"tensor": {"dtype": "DT_FLOAT", "tensorShape": {"dim": [{"size": "1"}, {"size": "1"}, {"size": "768"}, {"size": "160"}]}}}}}, {"name": "StatefulPartitionedCall/functional_1/inception_v3_1/batch_normalization_41_1/batchnorm/sub", "op": "Const", "attr": {"dtype": {"type": "DT_FLOAT"}, "value": {"tensor": {"dtype": "DT_FLOAT", "tensorShape": {"dim": [{"size": "1"}, {"size": "1"}, {"size": "1"}, {"size": "160"}]}}}}}, {"name": "StatefulPartitionedCall/functional_1/inception_v3_1/conv2d_42_1/convolution/merged_input", "op": "Const", "attr": {"dtype": {"type": "DT_FLOAT"}, "value": {"tensor": {"dtype": "DT_FLOAT", "tensorShape": {"dim": [{"size": "1"}, {"size": "7"}, {"size": "160"}, {"size": "160"}]}}}}}, {"name": "StatefulPartitionedCall/functional_1/inception_v3_1/batch_normalization_42_1/batchnorm/sub", "op": "Const", "attr": {"dtype": {"type": "DT_FLOAT"}, "value": {"tensor": {"dtype": "DT_FLOAT", "tensorShape": {"dim": [{"size": "1"}, {"size": "1"}, {"size": "1"}, {"size": "160"}]}}}}}, {"name": "StatefulPartitionedCall/functional_1/inception_v3_1/conv2d_43_1/convolution/merged_input", "op": "Const", "attr": {"dtype": {"type": "DT_FLOAT"}, "value": {"tensor": {"dtype": "DT_FLOAT", "tensorShape": {"dim": [{"size": "7"}, {"size": "1"}, {"size": "160"}, {"size": "192"}]}}}}}, {"name": "StatefulPartitionedCall/functional_1/inception_v3_1/batch_normalization_43_1/batchnorm/sub", "op": "Const", "attr": {"dtype": {"type": "DT_FLOAT"}, "value": {"tensor": {"dtype": "DT_FLOAT", "tensorShape": {"dim": [{"size": "1"}, {"size": "1"}, {"size": "1"}, {"size": "192"}]}}}}}, {"name": "StatefulPartitionedCall/functional_1/inception_v3_1/conv2d_44_1/convolution/merged_input", "op": "Const", "attr": {"dtype": {"type": "DT_FLOAT"}, "value": {"tensor": {"dtype": "DT_FLOAT", "tensorShape": {"dim": [{"size": "1"}, {"size": "1"}, {"size": "768"}, {"size": "160"}]}}}}}, {"name": "StatefulPartitionedCall/functional_1/inception_v3_1/batch_normalization_44_1/batchnorm/sub", "op": "Const", "attr": {"dtype": {"type": "DT_FLOAT"}, "value": {"tensor": {"dtype": "DT_FLOAT", "tensorShape": {"dim": [{"size": "1"}, {"size": "1"}, {"size": "1"}, {"size": "160"}]}}}}}, {"name": "StatefulPartitionedCall/functional_1/inception_v3_1/conv2d_45_1/convolution/merged_input", "op": "Const", "attr": {"dtype": {"type": "DT_FLOAT"}, "value": {"tensor": {"dtype": "DT_FLOAT", "tensorShape": {"dim": [{"size": "7"}, {"size": "1"}, {"size": "160"}, {"size": "160"}]}}}}}, {"name": "StatefulPartitionedCall/functional_1/inception_v3_1/batch_normalization_45_1/batchnorm/sub", "op": "Const", "attr": {"dtype": {"type": "DT_FLOAT"}, "value": {"tensor": {"dtype": "DT_FLOAT", "tensorShape": {"dim": [{"size": "1"}, {"size": "1"}, {"size": "1"}, {"size": "160"}]}}}}}, {"name": "StatefulPartitionedCall/functional_1/inception_v3_1/conv2d_46_1/convolution/merged_input", "op": "Const", "attr": {"dtype": {"type": "DT_FLOAT"}, "value": {"tensor": {"dtype": "DT_FLOAT", "tensorShape": {"dim": [{"size": "1"}, {"size": "7"}, {"size": "160"}, {"size": "160"}]}}}}}, {"name": "StatefulPartitionedCall/functional_1/inception_v3_1/batch_normalization_46_1/batchnorm/sub", "op": "Const", "attr": {"dtype": {"type": "DT_FLOAT"}, "value": {"tensor": {"dtype": "DT_FLOAT", "tensorShape": {"dim": [{"size": "1"}, {"size": "1"}, {"size": "1"}, {"size": "160"}]}}}}}, {"name": "StatefulPartitionedCall/functional_1/inception_v3_1/conv2d_47_1/convolution/merged_input", "op": "Const", "attr": {"dtype": {"type": "DT_FLOAT"}, "value": {"tensor": {"dtype": "DT_FLOAT", "tensorShape": {"dim": [{"size": "7"}, {"size": "1"}, {"size": "160"}, {"size": "160"}]}}}}}, {"name": "StatefulPartitionedCall/functional_1/inception_v3_1/batch_normalization_47_1/batchnorm/sub", "op": "Const", "attr": {"dtype": {"type": "DT_FLOAT"}, "value": {"tensor": {"dtype": "DT_FLOAT", "tensorShape": {"dim": [{"size": "1"}, {"size": "1"}, {"size": "1"}, {"size": "160"}]}}}}}, {"name": "StatefulPartitionedCall/functional_1/inception_v3_1/conv2d_48_1/convolution/merged_input", "op": "Const", "attr": {"dtype": {"type": "DT_FLOAT"}, "value": {"tensor": {"dtype": "DT_FLOAT", "tensorShape": {"dim": [{"size": "1"}, {"size": "7"}, {"size": "160"}, {"size": "192"}]}}}}}, {"name": "StatefulPartitionedCall/functional_1/inception_v3_1/batch_normalization_48_1/batchnorm/sub", "op": "Const", "attr": {"dtype": {"type": "DT_FLOAT"}, "value": {"tensor": {"dtype": "DT_FLOAT", "tensorShape": {"dim": [{"size": "1"}, {"size": "1"}, {"size": "1"}, {"size": "192"}]}}}}}, {"name": "StatefulPartitionedCall/functional_1/inception_v3_1/conv2d_30_1/convolution/merged_input", "op": "Const", "attr": {"dtype": {"type": "DT_FLOAT"}, "value": {"tensor": {"dtype": "DT_FLOAT", "tensorShape": {"dim": [{"size": "1"}, {"size": "1"}, {"size": "768"}, {"size": "192"}]}}}}}, {"name": "StatefulPartitionedCall/functional_1/inception_v3_1/batch_normalization_30_1/batchnorm/sub", "op": "Const", "attr": {"dtype": {"type": "DT_FLOAT"}, "value": {"tensor": {"dtype": "DT_FLOAT", "tensorShape": {"dim": [{"size": "1"}, {"size": "1"}, {"size": "1"}, {"size": "192"}]}}}}}, {"name": "StatefulPartitionedCall/functional_1/inception_v3_1/conv2d_31_1/convolution/merged_input", "op": "Const", "attr": {"dtype": {"type": "DT_FLOAT"}, "value": {"tensor": {"dtype": "DT_FLOAT", "tensorShape": {"dim": [{"size": "1"}, {"size": "1"}, {"size": "768"}, {"size": "128"}]}}}}}, {"name": "StatefulPartitionedCall/functional_1/inception_v3_1/batch_normalization_31_1/batchnorm/sub", "op": "Const", "attr": {"dtype": {"type": "DT_FLOAT"}, "value": {"tensor": {"dtype": "DT_FLOAT", "tensorShape": {"dim": [{"size": "1"}, {"size": "1"}, {"size": "1"}, {"size": "128"}]}}}}}, {"name": "StatefulPartitionedCall/functional_1/inception_v3_1/conv2d_32_1/convolution/merged_input", "op": "Const", "attr": {"dtype": {"type": "DT_FLOAT"}, "value": {"tensor": {"dtype": "DT_FLOAT", "tensorShape": {"dim": [{"size": "1"}, {"size": "7"}, {"size": "128"}, {"size": "128"}]}}}}}, {"name": "StatefulPartitionedCall/functional_1/inception_v3_1/batch_normalization_32_1/batchnorm/sub", "op": "Const", "attr": {"dtype": {"type": "DT_FLOAT"}, "value": {"tensor": {"dtype": "DT_FLOAT", "tensorShape": {"dim": [{"size": "1"}, {"size": "1"}, {"size": "1"}, {"size": "128"}]}}}}}, {"name": "StatefulPartitionedCall/functional_1/inception_v3_1/conv2d_33_1/convolution/merged_input", "op": "Const", "attr": {"dtype": {"type": "DT_FLOAT"}, "value": {"tensor": {"dtype": "DT_FLOAT", "tensorShape": {"dim": [{"size": "7"}, {"size": "1"}, {"size": "128"}, {"size": "192"}]}}}}}, {"name": "StatefulPartitionedCall/functional_1/inception_v3_1/batch_normalization_33_1/batchnorm/sub", "op": "Const", "attr": {"dtype": {"type": "DT_FLOAT"}, "value": {"tensor": {"dtype": "DT_FLOAT", "tensorShape": {"dim": [{"size": "1"}, {"size": "1"}, {"size": "1"}, {"size": "192"}]}}}}}, {"name": "StatefulPartitionedCall/functional_1/inception_v3_1/conv2d_34_1/convolution/merged_input", "op": "Const", "attr": {"dtype": {"type": "DT_FLOAT"}, "value": {"tensor": {"dtype": "DT_FLOAT", "tensorShape": {"dim": [{"size": "1"}, {"size": "1"}, {"size": "768"}, {"size": "128"}]}}}}}, {"name": "StatefulPartitionedCall/functional_1/inception_v3_1/batch_normalization_34_1/batchnorm/sub", "op": "Const", "attr": {"dtype": {"type": "DT_FLOAT"}, "value": {"tensor": {"dtype": "DT_FLOAT", "tensorShape": {"dim": [{"size": "1"}, {"size": "1"}, {"size": "1"}, {"size": "128"}]}}}}}, {"name": "StatefulPartitionedCall/functional_1/inception_v3_1/conv2d_35_1/convolution/merged_input", "op": "Const", "attr": {"dtype": {"type": "DT_FLOAT"}, "value": {"tensor": {"dtype": "DT_FLOAT", "tensorShape": {"dim": [{"size": "7"}, {"size": "1"}, {"size": "128"}, {"size": "128"}]}}}}}, {"name": "StatefulPartitionedCall/functional_1/inception_v3_1/batch_normalization_35_1/batchnorm/sub", "op": "Const", "attr": {"dtype": {"type": "DT_FLOAT"}, "value": {"tensor": {"dtype": "DT_FLOAT", "tensorShape": {"dim": [{"size": "1"}, {"size": "1"}, {"size": "1"}, {"size": "128"}]}}}}}, {"name": "StatefulPartitionedCall/functional_1/inception_v3_1/conv2d_36_1/convolution/merged_input", "op": "Const", "attr": {"dtype": {"type": "DT_FLOAT"}, "value": {"tensor": {"dtype": "DT_FLOAT", "tensorShape": {"dim": [{"size": "1"}, {"size": "7"}, {"size": "128"}, {"size": "128"}]}}}}}, {"name": "StatefulPartitionedCall/functional_1/inception_v3_1/batch_normalization_36_1/batchnorm/sub", "op": "Const", "attr": {"dtype": {"type": "DT_FLOAT"}, "value": {"tensor": {"dtype": "DT_FLOAT", "tensorShape": {"dim": [{"size": "1"}, {"size": "1"}, {"size": "1"}, {"size": "128"}]}}}}}, {"name": "StatefulPartitionedCall/functional_1/inception_v3_1/conv2d_37_1/convolution/merged_input", "op": "Const", "attr": {"dtype": {"type": "DT_FLOAT"}, "value": {"tensor": {"dtype": "DT_FLOAT", "tensorShape": {"dim": [{"size": "7"}, {"size": "1"}, {"size": "128"}, {"size": "128"}]}}}}}, {"name": "StatefulPartitionedCall/functional_1/inception_v3_1/batch_normalization_37_1/batchnorm/sub", "op": "Const", "attr": {"dtype": {"type": "DT_FLOAT"}, "value": {"tensor": {"dtype": "DT_FLOAT", "tensorShape": {"dim": [{"size": "1"}, {"size": "1"}, {"size": "1"}, {"size": "128"}]}}}}}, {"name": "StatefulPartitionedCall/functional_1/inception_v3_1/conv2d_38_1/convolution/merged_input", "op": "Const", "attr": {"dtype": {"type": "DT_FLOAT"}, "value": {"tensor": {"dtype": "DT_FLOAT", "tensorShape": {"dim": [{"size": "1"}, {"size": "7"}, {"size": "128"}, {"size": "192"}]}}}}}, {"name": "StatefulPartitionedCall/functional_1/inception_v3_1/batch_normalization_38_1/batchnorm/sub", "op": "Const", "attr": {"dtype": {"type": "DT_FLOAT"}, "value": {"tensor": {"dtype": "DT_FLOAT", "tensorShape": {"dim": [{"size": "1"}, {"size": "1"}, {"size": "1"}, {"size": "192"}]}}}}}, {"name": "StatefulPartitionedCall/functional_1/inception_v3_1/conv2d_26_1/convolution/merged_input", "op": "Const", "attr": {"dtype": {"type": "DT_FLOAT"}, "value": {"tensor": {"dtype": "DT_FLOAT", "tensorShape": {"dim": [{"size": "3"}, {"size": "3"}, {"size": "288"}, {"size": "384"}]}}}}}, {"name": "StatefulPartitionedCall/functional_1/inception_v3_1/batch_normalization_26_1/batchnorm/sub", "op": "Const", "attr": {"dtype": {"type": "DT_FLOAT"}, "value": {"tensor": {"dtype": "DT_FLOAT", "tensorShape": {"dim": [{"size": "1"}, {"size": "1"}, {"size": "1"}, {"size": "384"}]}}}}}, {"name": "StatefulPartitionedCall/functional_1/inception_v3_1/conv2d_27_1/convolution/merged_input", "op": "Const", "attr": {"dtype": {"type": "DT_FLOAT"}, "value": {"tensor": {"dtype": "DT_FLOAT", "tensorShape": {"dim": [{"size": "1"}, {"size": "1"}, {"size": "288"}, {"size": "64"}]}}}}}, {"name": "StatefulPartitionedCall/functional_1/inception_v3_1/batch_normalization_27_1/batchnorm/sub", "op": "Const", "attr": {"dtype": {"type": "DT_FLOAT"}, "value": {"tensor": {"dtype": "DT_FLOAT", "tensorShape": {"dim": [{"size": "1"}, {"size": "1"}, {"size": "1"}, {"size": "64"}]}}}}}, {"name": "StatefulPartitionedCall/functional_1/inception_v3_1/conv2d_28_1/convolution/merged_input", "op": "Const", "attr": {"dtype": {"type": "DT_FLOAT"}, "value": {"tensor": {"dtype": "DT_FLOAT", "tensorShape": {"dim": [{"size": "3"}, {"size": "3"}, {"size": "64"}, {"size": "96"}]}}}}}, {"name": "StatefulPartitionedCall/functional_1/inception_v3_1/batch_normalization_28_1/batchnorm/sub", "op": "Const", "attr": {"dtype": {"type": "DT_FLOAT"}, "value": {"tensor": {"dtype": "DT_FLOAT", "tensorShape": {"dim": [{"size": "1"}, {"size": "1"}, {"size": "1"}, {"size": "96"}]}}}}}, {"name": "StatefulPartitionedCall/functional_1/inception_v3_1/conv2d_29_1/convolution/merged_input", "op": "Const", "attr": {"dtype": {"type": "DT_FLOAT"}, "value": {"tensor": {"dtype": "DT_FLOAT", "tensorShape": {"dim": [{"size": "3"}, {"size": "3"}, {"size": "96"}, {"size": "96"}]}}}}}, {"name": "StatefulPartitionedCall/functional_1/inception_v3_1/batch_normalization_29_1/batchnorm/sub", "op": "Const", "attr": {"dtype": {"type": "DT_FLOAT"}, "value": {"tensor": {"dtype": "DT_FLOAT", "tensorShape": {"dim": [{"size": "1"}, {"size": "1"}, {"size": "1"}, {"size": "96"}]}}}}}, {"name": "StatefulPartitionedCall/functional_1/inception_v3_1/conv2d_19_1/convolution/merged_input", "op": "Const", "attr": {"dtype": {"type": "DT_FLOAT"}, "value": {"tensor": {"dtype": "DT_FLOAT", "tensorShape": {"dim": [{"size": "1"}, {"size": "1"}, {"size": "288"}, {"size": "64"}]}}}}}, {"name": "StatefulPartitionedCall/functional_1/inception_v3_1/batch_normalization_19_1/batchnorm/sub", "op": "Const", "attr": {"dtype": {"type": "DT_FLOAT"}, "value": {"tensor": {"dtype": "DT_FLOAT", "tensorShape": {"dim": [{"size": "1"}, {"size": "1"}, {"size": "1"}, {"size": "64"}]}}}}}, {"name": "StatefulPartitionedCall/functional_1/inception_v3_1/conv2d_20_1/convolution/merged_input", "op": "Const", "attr": {"dtype": {"type": "DT_FLOAT"}, "value": {"tensor": {"dtype": "DT_FLOAT", "tensorShape": {"dim": [{"size": "1"}, {"size": "1"}, {"size": "288"}, {"size": "48"}]}}}}}, {"name": "StatefulPartitionedCall/functional_1/inception_v3_1/batch_normalization_20_1/batchnorm/sub", "op": "Const", "attr": {"dtype": {"type": "DT_FLOAT"}, "value": {"tensor": {"dtype": "DT_FLOAT", "tensorShape": {"dim": [{"size": "1"}, {"size": "1"}, {"size": "1"}, {"size": "48"}]}}}}}, {"name": "StatefulPartitionedCall/functional_1/inception_v3_1/conv2d_21_1/convolution/merged_input", "op": "Const", "attr": {"dtype": {"type": "DT_FLOAT"}, "value": {"tensor": {"dtype": "DT_FLOAT", "tensorShape": {"dim": [{"size": "5"}, {"size": "5"}, {"size": "48"}, {"size": "64"}]}}}}}, {"name": "StatefulPartitionedCall/functional_1/inception_v3_1/batch_normalization_21_1/batchnorm/sub", "op": "Const", "attr": {"dtype": {"type": "DT_FLOAT"}, "value": {"tensor": {"dtype": "DT_FLOAT", "tensorShape": {"dim": [{"size": "1"}, {"size": "1"}, {"size": "1"}, {"size": "64"}]}}}}}, {"name": "StatefulPartitionedCall/functional_1/inception_v3_1/conv2d_22_1/convolution/merged_input", "op": "Const", "attr": {"dtype": {"type": "DT_FLOAT"}, "value": {"tensor": {"dtype": "DT_FLOAT", "tensorShape": {"dim": [{"size": "1"}, {"size": "1"}, {"size": "288"}, {"size": "64"}]}}}}}, {"name": "StatefulPartitionedCall/functional_1/inception_v3_1/batch_normalization_22_1/batchnorm/sub", "op": "Const", "attr": {"dtype": {"type": "DT_FLOAT"}, "value": {"tensor": {"dtype": "DT_FLOAT", "tensorShape": {"dim": [{"size": "1"}, {"size": "1"}, {"size": "1"}, {"size": "64"}]}}}}}, {"name": "StatefulPartitionedCall/functional_1/inception_v3_1/conv2d_23_1/convolution/merged_input", "op": "Const", "attr": {"dtype": {"type": "DT_FLOAT"}, "value": {"tensor": {"dtype": "DT_FLOAT", "tensorShape": {"dim": [{"size": "3"}, {"size": "3"}, {"size": "64"}, {"size": "96"}]}}}}}, {"name": "StatefulPartitionedCall/functional_1/inception_v3_1/batch_normalization_23_1/batchnorm/sub", "op": "Const", "attr": {"dtype": {"type": "DT_FLOAT"}, "value": {"tensor": {"dtype": "DT_FLOAT", "tensorShape": {"dim": [{"size": "1"}, {"size": "1"}, {"size": "1"}, {"size": "96"}]}}}}}, {"name": "StatefulPartitionedCall/functional_1/inception_v3_1/conv2d_24_1/convolution/merged_input", "op": "Const", "attr": {"dtype": {"type": "DT_FLOAT"}, "value": {"tensor": {"dtype": "DT_FLOAT", "tensorShape": {"dim": [{"size": "3"}, {"size": "3"}, {"size": "96"}, {"size": "96"}]}}}}}, {"name": "StatefulPartitionedCall/functional_1/inception_v3_1/batch_normalization_24_1/batchnorm/sub", "op": "Const", "attr": {"dtype": {"type": "DT_FLOAT"}, "value": {"tensor": {"dtype": "DT_FLOAT", "tensorShape": {"dim": [{"size": "1"}, {"size": "1"}, {"size": "1"}, {"size": "96"}]}}}}}, {"name": "StatefulPartitionedCall/functional_1/inception_v3_1/conv2d_12_1/convolution/merged_input", "op": "Const", "attr": {"dtype": {"type": "DT_FLOAT"}, "value": {"tensor": {"dtype": "DT_FLOAT", "tensorShape": {"dim": [{"size": "1"}, {"size": "1"}, {"size": "256"}, {"size": "64"}]}}}}}, {"name": "StatefulPartitionedCall/functional_1/inception_v3_1/batch_normalization_12_1/batchnorm/sub", "op": "Const", "attr": {"dtype": {"type": "DT_FLOAT"}, "value": {"tensor": {"dtype": "DT_FLOAT", "tensorShape": {"dim": [{"size": "1"}, {"size": "1"}, {"size": "1"}, {"size": "64"}]}}}}}, {"name": "StatefulPartitionedCall/functional_1/inception_v3_1/conv2d_13_1/convolution/merged_input", "op": "Const", "attr": {"dtype": {"type": "DT_FLOAT"}, "value": {"tensor": {"dtype": "DT_FLOAT", "tensorShape": {"dim": [{"size": "1"}, {"size": "1"}, {"size": "256"}, {"size": "48"}]}}}}}, {"name": "StatefulPartitionedCall/functional_1/inception_v3_1/batch_normalization_13_1/batchnorm/sub", "op": "Const", "attr": {"dtype": {"type": "DT_FLOAT"}, "value": {"tensor": {"dtype": "DT_FLOAT", "tensorShape": {"dim": [{"size": "1"}, {"size": "1"}, {"size": "1"}, {"size": "48"}]}}}}}, {"name": "StatefulPartitionedCall/functional_1/inception_v3_1/conv2d_14_1/convolution/merged_input", "op": "Const", "attr": {"dtype": {"type": "DT_FLOAT"}, "value": {"tensor": {"dtype": "DT_FLOAT", "tensorShape": {"dim": [{"size": "5"}, {"size": "5"}, {"size": "48"}, {"size": "64"}]}}}}}, {"name": "StatefulPartitionedCall/functional_1/inception_v3_1/batch_normalization_14_1/batchnorm/sub", "op": "Const", "attr": {"dtype": {"type": "DT_FLOAT"}, "value": {"tensor": {"dtype": "DT_FLOAT", "tensorShape": {"dim": [{"size": "1"}, {"size": "1"}, {"size": "1"}, {"size": "64"}]}}}}}, {"name": "StatefulPartitionedCall/functional_1/inception_v3_1/conv2d_15_1/convolution/merged_input", "op": "Const", "attr": {"dtype": {"type": "DT_FLOAT"}, "value": {"tensor": {"dtype": "DT_FLOAT", "tensorShape": {"dim": [{"size": "1"}, {"size": "1"}, {"size": "256"}, {"size": "64"}]}}}}}, {"name": "StatefulPartitionedCall/functional_1/inception_v3_1/batch_normalization_15_1/batchnorm/sub", "op": "Const", "attr": {"dtype": {"type": "DT_FLOAT"}, "value": {"tensor": {"dtype": "DT_FLOAT", "tensorShape": {"dim": [{"size": "1"}, {"size": "1"}, {"size": "1"}, {"size": "64"}]}}}}}, {"name": "StatefulPartitionedCall/functional_1/inception_v3_1/conv2d_16_1/convolution/merged_input", "op": "Const", "attr": {"dtype": {"type": "DT_FLOAT"}, "value": {"tensor": {"dtype": "DT_FLOAT", "tensorShape": {"dim": [{"size": "3"}, {"size": "3"}, {"size": "64"}, {"size": "96"}]}}}}}, {"name": "StatefulPartitionedCall/functional_1/inception_v3_1/batch_normalization_16_1/batchnorm/sub", "op": "Const", "attr": {"dtype": {"type": "DT_FLOAT"}, "value": {"tensor": {"dtype": "DT_FLOAT", "tensorShape": {"dim": [{"size": "1"}, {"size": "1"}, {"size": "1"}, {"size": "96"}]}}}}}, {"name": "StatefulPartitionedCall/functional_1/inception_v3_1/conv2d_17_1/convolution/merged_input", "op": "Const", "attr": {"dtype": {"type": "DT_FLOAT"}, "value": {"tensor": {"dtype": "DT_FLOAT", "tensorShape": {"dim": [{"size": "3"}, {"size": "3"}, {"size": "96"}, {"size": "96"}]}}}}}, {"name": "StatefulPartitionedCall/functional_1/inception_v3_1/batch_normalization_17_1/batchnorm/sub", "op": "Const", "attr": {"dtype": {"type": "DT_FLOAT"}, "value": {"tensor": {"dtype": "DT_FLOAT", "tensorShape": {"dim": [{"size": "1"}, {"size": "1"}, {"size": "1"}, {"size": "96"}]}}}}}, {"name": "StatefulPartitionedCall/functional_1/inception_v3_1/conv2d_5_1/convolution/merged_input", "op": "Const", "attr": {"dtype": {"type": "DT_FLOAT"}, "value": {"tensor": {"dtype": "DT_FLOAT", "tensorShape": {"dim": [{"size": "1"}, {"size": "1"}, {"size": "192"}, {"size": "64"}]}}}}}, {"name": "StatefulPartitionedCall/functional_1/inception_v3_1/batch_normalization_5_1/batchnorm/sub", "op": "Const", "attr": {"dtype": {"type": "DT_FLOAT"}, "value": {"tensor": {"dtype": "DT_FLOAT", "tensorShape": {"dim": [{"size": "1"}, {"size": "1"}, {"size": "1"}, {"size": "64"}]}}}}}, {"name": "StatefulPartitionedCall/functional_1/inception_v3_1/conv2d_6_1/convolution/merged_input", "op": "Const", "attr": {"dtype": {"type": "DT_FLOAT"}, "value": {"tensor": {"dtype": "DT_FLOAT", "tensorShape": {"dim": [{"size": "1"}, {"size": "1"}, {"size": "192"}, {"size": "48"}]}}}}}, {"name": "StatefulPartitionedCall/functional_1/inception_v3_1/batch_normalization_6_1/batchnorm/sub", "op": "Const", "attr": {"dtype": {"type": "DT_FLOAT"}, "value": {"tensor": {"dtype": "DT_FLOAT", "tensorShape": {"dim": [{"size": "1"}, {"size": "1"}, {"size": "1"}, {"size": "48"}]}}}}}, {"name": "StatefulPartitionedCall/functional_1/inception_v3_1/conv2d_7_1/convolution/merged_input", "op": "Const", "attr": {"dtype": {"type": "DT_FLOAT"}, "value": {"tensor": {"dtype": "DT_FLOAT", "tensorShape": {"dim": [{"size": "5"}, {"size": "5"}, {"size": "48"}, {"size": "64"}]}}}}}, {"name": "StatefulPartitionedCall/functional_1/inception_v3_1/batch_normalization_7_1/batchnorm/sub", "op": "Const", "attr": {"dtype": {"type": "DT_FLOAT"}, "value": {"tensor": {"dtype": "DT_FLOAT", "tensorShape": {"dim": [{"size": "1"}, {"size": "1"}, {"size": "1"}, {"size": "64"}]}}}}}, {"name": "StatefulPartitionedCall/functional_1/inception_v3_1/conv2d_8_1/convolution/merged_input", "op": "Const", "attr": {"dtype": {"type": "DT_FLOAT"}, "value": {"tensor": {"dtype": "DT_FLOAT", "tensorShape": {"dim": [{"size": "1"}, {"size": "1"}, {"size": "192"}, {"size": "64"}]}}}}}, {"name": "StatefulPartitionedCall/functional_1/inception_v3_1/batch_normalization_8_1/batchnorm/sub", "op": "Const", "attr": {"dtype": {"type": "DT_FLOAT"}, "value": {"tensor": {"dtype": "DT_FLOAT", "tensorShape": {"dim": [{"size": "1"}, {"size": "1"}, {"size": "1"}, {"size": "64"}]}}}}}, {"name": "StatefulPartitionedCall/functional_1/inception_v3_1/conv2d_9_1/convolution/merged_input", "op": "Const", "attr": {"dtype": {"type": "DT_FLOAT"}, "value": {"tensor": {"dtype": "DT_FLOAT", "tensorShape": {"dim": [{"size": "3"}, {"size": "3"}, {"size": "64"}, {"size": "96"}]}}}}}, {"name": "StatefulPartitionedCall/functional_1/inception_v3_1/batch_normalization_9_1/batchnorm/sub", "op": "Const", "attr": {"dtype": {"type": "DT_FLOAT"}, "value": {"tensor": {"dtype": "DT_FLOAT", "tensorShape": {"dim": [{"size": "1"}, {"size": "1"}, {"size": "1"}, {"size": "96"}]}}}}}, {"name": "StatefulPartitionedCall/functional_1/inception_v3_1/conv2d_10_1/convolution/merged_input", "op": "Const", "attr": {"dtype": {"type": "DT_FLOAT"}, "value": {"tensor": {"dtype": "DT_FLOAT", "tensorShape": {"dim": [{"size": "3"}, {"size": "3"}, {"size": "96"}, {"size": "96"}]}}}}}, {"name": "StatefulPartitionedCall/functional_1/inception_v3_1/batch_normalization_10_1/batchnorm/sub", "op": "Const", "attr": {"dtype": {"type": "DT_FLOAT"}, "value": {"tensor": {"dtype": "DT_FLOAT", "tensorShape": {"dim": [{"size": "1"}, {"size": "1"}, {"size": "1"}, {"size": "96"}]}}}}}, {"name": "StatefulPartitionedCall/functional_1/inception_v3_1/conv2d_1/convolution/merged_input", "op": "Const", "attr": {"dtype": {"type": "DT_FLOAT"}, "value": {"tensor": {"dtype": "DT_FLOAT", "tensorShape": {"dim": [{"size": "3"}, {"size": "3"}, {"size": "3"}, {"size": "32"}]}}}}}, {"name": "StatefulPartitionedCall/functional_1/inception_v3_1/batch_normalization_1/batchnorm/sub", "op": "Const", "attr": {"dtype": {"type": "DT_FLOAT"}, "value": {"tensor": {"dtype": "DT_FLOAT", "tensorShape": {"dim": [{"size": "1"}, {"size": "1"}, {"size": "1"}, {"size": "32"}]}}}}}, {"name": "StatefulPartitionedCall/functional_1/inception_v3_1/conv2d_1_2/convolution/merged_input", "op": "Const", "attr": {"dtype": {"type": "DT_FLOAT"}, "value": {"tensor": {"dtype": "DT_FLOAT", "tensorShape": {"dim": [{"size": "3"}, {"size": "3"}, {"size": "32"}, {"size": "32"}]}}}}}, {"name": "StatefulPartitionedCall/functional_1/inception_v3_1/batch_normalization_1_2/batchnorm/sub", "op": "Const", "attr": {"dtype": {"type": "DT_FLOAT"}, "value": {"tensor": {"dtype": "DT_FLOAT", "tensorShape": {"dim": [{"size": "1"}, {"size": "1"}, {"size": "1"}, {"size": "32"}]}}}}}, {"name": "StatefulPartitionedCall/functional_1/inception_v3_1/conv2d_2_1/convolution/merged_input", "op": "Const", "attr": {"dtype": {"type": "DT_FLOAT"}, "value": {"tensor": {"dtype": "DT_FLOAT", "tensorShape": {"dim": [{"size": "3"}, {"size": "3"}, {"size": "32"}, {"size": "64"}]}}}}}, {"name": "StatefulPartitionedCall/functional_1/inception_v3_1/batch_normalization_2_1/batchnorm/sub", "op": "Const", "attr": {"dtype": {"type": "DT_FLOAT"}, "value": {"tensor": {"dtype": "DT_FLOAT", "tensorShape": {"dim": [{"size": "1"}, {"size": "1"}, {"size": "1"}, {"size": "64"}]}}}}}, {"name": "StatefulPartitionedCall/functional_1/inception_v3_1/conv2d_3_1/convolution/merged_input", "op": "Const", "attr": {"dtype": {"type": "DT_FLOAT"}, "value": {"tensor": {"dtype": "DT_FLOAT", "tensorShape": {"dim": [{"size": "1"}, {"size": "1"}, {"size": "64"}, {"size": "80"}]}}}}}, {"name": "StatefulPartitionedCall/functional_1/inception_v3_1/batch_normalization_3_1/batchnorm/sub", "op": "Const", "attr": {"dtype": {"type": "DT_FLOAT"}, "value": {"tensor": {"dtype": "DT_FLOAT", "tensorShape": {"dim": [{"size": "1"}, {"size": "1"}, {"size": "1"}, {"size": "80"}]}}}}}, {"name": "StatefulPartitionedCall/functional_1/inception_v3_1/conv2d_4_1/convolution/merged_input", "op": "Const", "attr": {"dtype": {"type": "DT_FLOAT"}, "value": {"tensor": {"dtype": "DT_FLOAT", "tensorShape": {"dim": [{"size": "3"}, {"size": "3"}, {"size": "80"}, {"size": "192"}]}}}}}, {"name": "StatefulPartitionedCall/functional_1/inception_v3_1/batch_normalization_4_1/batchnorm/sub", "op": "Const", "attr": {"dtype": {"type": "DT_FLOAT"}, "value": {"tensor": {"dtype": "DT_FLOAT", "tensorShape": {"dim": [{"size": "1"}, {"size": "1"}, {"size": "1"}, {"size": "192"}]}}}}}, {"name": "StatefulPartitionedCall/functional_1/inception_v3_1/conv2d_11_1/convolution/merged_input", "op": "Const", "attr": {"dtype": {"type": "DT_FLOAT"}, "value": {"tensor": {"dtype": "DT_FLOAT", "tensorShape": {"dim": [{"size": "1"}, {"size": "1"}, {"size": "192"}, {"size": "32"}]}}}}}, {"name": "StatefulPartitionedCall/functional_1/inception_v3_1/batch_normalization_11_1/batchnorm/sub", "op": "Const", "attr": {"dtype": {"type": "DT_FLOAT"}, "value": {"tensor": {"dtype": "DT_FLOAT", "tensorShape": {"dim": [{"size": "1"}, {"size": "1"}, {"size": "1"}, {"size": "32"}]}}}}}, {"name": "StatefulPartitionedCall/functional_1/inception_v3_1/mixed0_1/concat/axis", "op": "Const", "attr": {"dtype": {"type": "DT_INT32"}, "value": {"tensor": {"dtype": "DT_INT32", "tensorShape": {}}}}}, {"name": "StatefulPartitionedCall/functional_1/inception_v3_1/conv2d_18_1/convolution/merged_input", "op": "Const", "attr": {"dtype": {"type": "DT_FLOAT"}, "value": {"tensor": {"dtype": "DT_FLOAT", "tensorShape": {"dim": [{"size": "1"}, {"size": "1"}, {"size": "256"}, {"size": "64"}]}}}}}, {"name": "StatefulPartitionedCall/functional_1/inception_v3_1/batch_normalization_18_1/batchnorm/sub", "op": "Const", "attr": {"dtype": {"type": "DT_FLOAT"}, "value": {"tensor": {"dtype": "DT_FLOAT", "tensorShape": {"dim": [{"size": "1"}, {"size": "1"}, {"size": "1"}, {"size": "64"}]}}}}}, {"name": "StatefulPartitionedCall/functional_1/inception_v3_1/mixed1_1/concat/axis", "op": "Const", "attr": {"dtype": {"type": "DT_INT32"}, "value": {"tensor": {"dtype": "DT_INT32", "tensorShape": {}}}}}, {"name": "StatefulPartitionedCall/functional_1/inception_v3_1/conv2d_25_1/convolution/merged_input", "op": "Const", "attr": {"dtype": {"type": "DT_FLOAT"}, "value": {"tensor": {"dtype": "DT_FLOAT", "tensorShape": {"dim": [{"size": "1"}, {"size": "1"}, {"size": "288"}, {"size": "64"}]}}}}}, {"name": "StatefulPartitionedCall/functional_1/inception_v3_1/batch_normalization_25_1/batchnorm/sub", "op": "Const", "attr": {"dtype": {"type": "DT_FLOAT"}, "value": {"tensor": {"dtype": "DT_FLOAT", "tensorShape": {"dim": [{"size": "1"}, {"size": "1"}, {"size": "1"}, {"size": "64"}]}}}}}, {"name": "StatefulPartitionedCall/functional_1/inception_v3_1/mixed2_1/concat/axis", "op": "Const", "attr": {"dtype": {"type": "DT_INT32"}, "value": {"tensor": {"dtype": "DT_INT32", "tensorShape": {}}}}}, {"name": "StatefulPartitionedCall/functional_1/inception_v3_1/mixed3_1/concat/axis", "op": "Const", "attr": {"dtype": {"type": "DT_INT32"}, "value": {"tensor": {"dtype": "DT_INT32", "tensorShape": {}}}}}, {"name": "StatefulPartitionedCall/functional_1/inception_v3_1/conv2d_39_1/convolution/merged_input", "op": "Const", "attr": {"dtype": {"type": "DT_FLOAT"}, "value": {"tensor": {"dtype": "DT_FLOAT", "tensorShape": {"dim": [{"size": "1"}, {"size": "1"}, {"size": "768"}, {"size": "192"}]}}}}}, {"name": "StatefulPartitionedCall/functional_1/inception_v3_1/batch_normalization_39_1/batchnorm/sub", "op": "Const", "attr": {"dtype": {"type": "DT_FLOAT"}, "value": {"tensor": {"dtype": "DT_FLOAT", "tensorShape": {"dim": [{"size": "1"}, {"size": "1"}, {"size": "1"}, {"size": "192"}]}}}}}, {"name": "StatefulPartitionedCall/functional_1/inception_v3_1/mixed4_1/concat/axis", "op": "Const", "attr": {"dtype": {"type": "DT_INT32"}, "value": {"tensor": {"dtype": "DT_INT32", "tensorShape": {}}}}}, {"name": "StatefulPartitionedCall/functional_1/inception_v3_1/conv2d_49_1/convolution/merged_input", "op": "Const", "attr": {"dtype": {"type": "DT_FLOAT"}, "value": {"tensor": {"dtype": "DT_FLOAT", "tensorShape": {"dim": [{"size": "1"}, {"size": "1"}, {"size": "768"}, {"size": "192"}]}}}}}, {"name": "StatefulPartitionedCall/functional_1/inception_v3_1/batch_normalization_49_1/batchnorm/sub", "op": "Const", "attr": {"dtype": {"type": "DT_FLOAT"}, "value": {"tensor": {"dtype": "DT_FLOAT", "tensorShape": {"dim": [{"size": "1"}, {"size": "1"}, {"size": "1"}, {"size": "192"}]}}}}}, {"name": "StatefulPartitionedCall/functional_1/inception_v3_1/mixed5_1/concat/axis", "op": "Const", "attr": {"dtype": {"type": "DT_INT32"}, "value": {"tensor": {"dtype": "DT_INT32", "tensorShape": {}}}}}, {"name": "StatefulPartitionedCall/functional_1/inception_v3_1/conv2d_59_1/convolution/merged_input", "op": "Const", "attr": {"dtype": {"type": "DT_FLOAT"}, "value": {"tensor": {"dtype": "DT_FLOAT", "tensorShape": {"dim": [{"size": "1"}, {"size": "1"}, {"size": "768"}, {"size": "192"}]}}}}}, {"name": "StatefulPartitionedCall/functional_1/inception_v3_1/batch_normalization_59_1/batchnorm/sub", "op": "Const", "attr": {"dtype": {"type": "DT_FLOAT"}, "value": {"tensor": {"dtype": "DT_FLOAT", "tensorShape": {"dim": [{"size": "1"}, {"size": "1"}, {"size": "1"}, {"size": "192"}]}}}}}, {"name": "StatefulPartitionedCall/functional_1/inception_v3_1/mixed6_1/concat/axis", "op": "Const", "attr": {"dtype": {"type": "DT_INT32"}, "value": {"tensor": {"dtype": "DT_INT32", "tensorShape": {}}}}}, {"name": "StatefulPartitionedCall/functional_1/inception_v3_1/conv2d_69_1/convolution/merged_input", "op": "Const", "attr": {"dtype": {"type": "DT_FLOAT"}, "value": {"tensor": {"dtype": "DT_FLOAT", "tensorShape": {"dim": [{"size": "1"}, {"size": "1"}, {"size": "768"}, {"size": "192"}]}}}}}, {"name": "StatefulPartitionedCall/functional_1/inception_v3_1/batch_normalization_69_1/batchnorm/sub", "op": "Const", "attr": {"dtype": {"type": "DT_FLOAT"}, "value": {"tensor": {"dtype": "DT_FLOAT", "tensorShape": {"dim": [{"size": "1"}, {"size": "1"}, {"size": "1"}, {"size": "192"}]}}}}}, {"name": "StatefulPartitionedCall/functional_1/inception_v3_1/mixed7_1/concat/axis", "op": "Const", "attr": {"dtype": {"type": "DT_INT32"}, "value": {"tensor": {"dtype": "DT_INT32", "tensorShape": {}}}}}, {"name": "StatefulPartitionedCall/functional_1/inception_v3_1/mixed8_1/concat/axis", "op": "Const", "attr": {"dtype": {"type": "DT_INT32"}, "value": {"tensor": {"dtype": "DT_INT32", "tensorShape": {}}}}}, {"name": "StatefulPartitionedCall/functional_1/inception_v3_1/conv2d_84_1/convolution/merged_input", "op": "Const", "attr": {"dtype": {"type": "DT_FLOAT"}, "value": {"tensor": {"dtype": "DT_FLOAT", "tensorShape": {"dim": [{"size": "1"}, {"size": "1"}, {"size": "1280"}, {"size": "192"}]}}}}}, {"name": "StatefulPartitionedCall/functional_1/inception_v3_1/batch_normalization_84_1/batchnorm/sub", "op": "Const", "attr": {"dtype": {"type": "DT_FLOAT"}, "value": {"tensor": {"dtype": "DT_FLOAT", "tensorShape": {"dim": [{"size": "1"}, {"size": "1"}, {"size": "1"}, {"size": "192"}]}}}}}, {"name": "StatefulPartitionedCall/functional_1/inception_v3_1/mixed9_1/concat/axis", "op": "Const", "attr": {"dtype": {"type": "DT_INT32"}, "value": {"tensor": {"dtype": "DT_INT32", "tensorShape": {}}}}}, {"name": "StatefulPartitionedCall/functional_1/inception_v3_1/conv2d_93_1/convolution/merged_input", "op": "Const", "attr": {"dtype": {"type": "DT_FLOAT"}, "value": {"tensor": {"dtype": "DT_FLOAT", "tensorShape": {"dim": [{"size": "1"}, {"size": "1"}, {"size": "2048"}, {"size": "192"}]}}}}}, {"name": "StatefulPartitionedCall/functional_1/inception_v3_1/batch_normalization_93_1/batchnorm/sub", "op": "Const", "attr": {"dtype": {"type": "DT_FLOAT"}, "value": {"tensor": {"dtype": "DT_FLOAT", "tensorShape": {"dim": [{"size": "1"}, {"size": "1"}, {"size": "1"}, {"size": "192"}]}}}}}, {"name": "StatefulPartitionedCall/functional_1/inception_v3_1/mixed10_1/concat/axis", "op": "Const", "attr": {"dtype": {"type": "DT_INT32"}, "value": {"tensor": {"dtype": "DT_INT32", "tensorShape": {}}}}}, {"name": "StatefulPartitionedCall/functional_1/global_average_pooling2d_1/Mean/reduction_indices", "op": "Const", "attr": {"dtype": {"type": "DT_INT32"}, "value": {"tensor": {"dtype": "DT_INT32", "tensorShape": {"dim": [{"size": "2"}]}}}}}, {"name": "StatefulPartitionedCall/functional_1/dense_1/Cast/ReadVariableOp", "op": "Const", "attr": {"dtype": {"type": "DT_FLOAT"}, "value": {"tensor": {"dtype": "DT_FLOAT", "tensorShape": {"dim": [{"size": "2048"}, {"size": "256"}]}}}}}, {"name": "StatefulPartitionedCall/functional_1/dense_1/BiasAdd/ReadVariableOp", "op": "Const", "attr": {"dtype": {"type": "DT_FLOAT"}, "value": {"tensor": {"dtype": "DT_FLOAT", "tensorShape": {"dim": [{"size": "256"}]}}}}}, {"name": "StatefulPartitionedCall/functional_1/dense_1_2/Cast/ReadVariableOp", "op": "Const", "attr": {"dtype": {"type": "DT_FLOAT"}, "value": {"tensor": {"dtype": "DT_FLOAT", "tensorShape": {"dim": [{"size": "256"}, {"size": "2"}]}}}}}, {"name": "StatefulPartitionedCall/functional_1/dense_1_2/BiasAdd/ReadVariableOp", "op": "Const", "attr": {"dtype": {"type": "DT_FLOAT"}, "value": {"tensor": {"dtype": "DT_FLOAT", "tensorShape": {"dim": [{"size": "2"}]}}}}}, {"name": "input_layer_1", "op": "Placeholder", "attr": {"dtype": {"type": "DT_FLOAT"}, "shape": {"shape": {"dim": [{"size": "-1"}, {"size": "224"}, {"size": "224"}, {"size": "3"}]}}}}, {"name": "StatefulPartitionedCall/functional_1/inception_v3_1/batch_normalization_1/batchnorm/mul", "op": "Conv2D", "input": ["input_layer_1", "StatefulPartitionedCall/functional_1/inception_v3_1/conv2d_1/convolution/merged_input"], "device": "/device:CPU:0", "attr": {"explicit_paddings": {"list": {}}, "_input_shapes": {"list": {"shape": [{"dim": [{"size": "-2"}, {"size": "-17"}, {"size": "-18"}, {"size": "-19"}]}, {"dim": [{"size": "3"}, {"size": "3"}, {"size": "3"}, {"size": "32"}]}]}}, "use_cudnn_on_gpu": {"b": true}, "data_format": {"s": "TkhXQw=="}, "padding": {"s": "VkFMSUQ="}, "strides": {"list": {"i": ["1", "2", "2", "1"]}}, "T": {"type": "DT_FLOAT"}, "dilations": {"list": {"i": ["1", "1", "1", "1"]}}}}, {"name": "StatefulPartitionedCall/functional_1/inception_v3_1/batch_normalization_1/batchnorm/add_1", "op": "AddV2", "input": ["StatefulPartitionedCall/functional_1/inception_v3_1/batch_normalization_1/batchnorm/mul", "StatefulPartitionedCall/functional_1/inception_v3_1/batch_normalization_1/batchnorm/sub"], "attr": {"T": {"type": "DT_FLOAT"}}}, {"name": "StatefulPartitionedCall/functional_1/inception_v3_1/activation_1/Relu", "op": "Relu", "input": ["StatefulPartitionedCall/functional_1/inception_v3_1/batch_normalization_1/batchnorm/add_1"], "attr": {"T": {"type": "DT_FLOAT"}}}, {"name": "StatefulPartitionedCall/functional_1/inception_v3_1/batch_normalization_1_2/batchnorm/mul", "op": "Conv2D", "input": ["StatefulPartitionedCall/functional_1/inception_v3_1/activation_1/Relu", "StatefulPartitionedCall/functional_1/inception_v3_1/conv2d_1_2/convolution/merged_input"], "device": "/device:CPU:0", "attr": {"explicit_paddings": {"list": {}}, "use_cudnn_on_gpu": {"b": true}, "_input_shapes": {"list": {"shape": [{"dim": [{"size": "-2"}, {"size": "-20"}, {"size": "-21"}, {"size": "32"}]}, {"dim": [{"size": "3"}, {"size": "3"}, {"size": "32"}, {"size": "32"}]}]}}, "data_format": {"s": "TkhXQw=="}, "padding": {"s": "VkFMSUQ="}, "T": {"type": "DT_FLOAT"}, "strides": {"list": {"i": ["1", "1", "1", "1"]}}, "dilations": {"list": {"i": ["1", "1", "1", "1"]}}}}, {"name": "StatefulPartitionedCall/functional_1/inception_v3_1/batch_normalization_1_2/batchnorm/add_1", "op": "AddV2", "input": ["StatefulPartitionedCall/functional_1/inception_v3_1/batch_normalization_1_2/batchnorm/mul", "StatefulPartitionedCall/functional_1/inception_v3_1/batch_normalization_1_2/batchnorm/sub"], "attr": {"T": {"type": "DT_FLOAT"}}}, {"name": "StatefulPartitionedCall/functional_1/inception_v3_1/activation_1_2/Relu", "op": "Relu", "input": ["StatefulPartitionedCall/functional_1/inception_v3_1/batch_normalization_1_2/batchnorm/add_1"], "attr": {"T": {"type": "DT_FLOAT"}}}, {"name": "StatefulPartitionedCall/functional_1/inception_v3_1/batch_normalization_2_1/batchnorm/mul", "op": "Conv2D", "input": ["StatefulPartitionedCall/functional_1/inception_v3_1/activation_1_2/Relu", "StatefulPartitionedCall/functional_1/inception_v3_1/conv2d_2_1/convolution/merged_input"], "device": "/device:CPU:0", "attr": {"explicit_paddings": {"list": {}}, "use_cudnn_on_gpu": {"b": true}, "_input_shapes": {"list": {"shape": [{"dim": [{"size": "-2"}, {"size": "-22"}, {"size": "-23"}, {"size": "32"}]}, {"dim": [{"size": "3"}, {"size": "3"}, {"size": "32"}, {"size": "64"}]}]}}, "data_format": {"s": "TkhXQw=="}, "padding": {"s": "U0FNRQ=="}, "T": {"type": "DT_FLOAT"}, "strides": {"list": {"i": ["1", "1", "1", "1"]}}, "dilations": {"list": {"i": ["1", "1", "1", "1"]}}}}, {"name": "StatefulPartitionedCall/functional_1/inception_v3_1/batch_normalization_2_1/batchnorm/add_1", "op": "AddV2", "input": ["StatefulPartitionedCall/functional_1/inception_v3_1/batch_normalization_2_1/batchnorm/mul", "StatefulPartitionedCall/functional_1/inception_v3_1/batch_normalization_2_1/batchnorm/sub"], "attr": {"T": {"type": "DT_FLOAT"}}}, {"name": "StatefulPartitionedCall/functional_1/inception_v3_1/max_pooling2d_1/MaxPool2d", "op": "MaxPool", "input": ["StatefulPartitionedCall/functional_1/inception_v3_1/batch_normalization_2_1/batchnorm/add_1"], "attr": {"explicit_paddings": {"list": {}}, "data_format": {"s": "TkhXQw=="}, "padding": {"s": "VkFMSUQ="}, "T": {"type": "DT_FLOAT"}, "strides": {"list": {"i": ["1", "2", "2", "1"]}}, "ksize": {"list": {"i": ["1", "3", "3", "1"]}}}}, {"name": "StatefulPartitionedCall/functional_1/inception_v3_1/activation_2_1/Relu", "op": "Relu", "input": ["StatefulPartitionedCall/functional_1/inception_v3_1/max_pooling2d_1/MaxPool2d"], "attr": {"T": {"type": "DT_FLOAT"}}}, {"name": "StatefulPartitionedCall/functional_1/inception_v3_1/batch_normalization_3_1/batchnorm/mul", "op": "Conv2D", "input": ["StatefulPartitionedCall/functional_1/inception_v3_1/activation_2_1/Relu", "StatefulPartitionedCall/functional_1/inception_v3_1/conv2d_3_1/convolution/merged_input"], "device": "/device:CPU:0", "attr": {"explicit_paddings": {"list": {}}, "_input_shapes": {"list": {"shape": [{"dim": [{"size": "-2"}, {"size": "-24"}, {"size": "-25"}, {"size": "64"}]}, {"dim": [{"size": "1"}, {"size": "1"}, {"size": "64"}, {"size": "80"}]}]}}, "use_cudnn_on_gpu": {"b": true}, "padding": {"s": "VkFMSUQ="}, "data_format": {"s": "TkhXQw=="}, "T": {"type": "DT_FLOAT"}, "strides": {"list": {"i": ["1", "1", "1", "1"]}}, "dilations": {"list": {"i": ["1", "1", "1", "1"]}}}}, {"name": "StatefulPartitionedCall/functional_1/inception_v3_1/batch_normalization_3_1/batchnorm/add_1", "op": "AddV2", "input": ["StatefulPartitionedCall/functional_1/inception_v3_1/batch_normalization_3_1/batchnorm/mul", "StatefulPartitionedCall/functional_1/inception_v3_1/batch_normalization_3_1/batchnorm/sub"], "attr": {"T": {"type": "DT_FLOAT"}}}, {"name": "StatefulPartitionedCall/functional_1/inception_v3_1/activation_3_1/Relu", "op": "Relu", "input": ["StatefulPartitionedCall/functional_1/inception_v3_1/batch_normalization_3_1/batchnorm/add_1"], "attr": {"T": {"type": "DT_FLOAT"}}}, {"name": "StatefulPartitionedCall/functional_1/inception_v3_1/batch_normalization_4_1/batchnorm/mul", "op": "Conv2D", "input": ["StatefulPartitionedCall/functional_1/inception_v3_1/activation_3_1/Relu", "StatefulPartitionedCall/functional_1/inception_v3_1/conv2d_4_1/convolution/merged_input"], "device": "/device:CPU:0", "attr": {"explicit_paddings": {"list": {}}, "_input_shapes": {"list": {"shape": [{"dim": [{"size": "-2"}, {"size": "-26"}, {"size": "-27"}, {"size": "80"}]}, {"dim": [{"size": "3"}, {"size": "3"}, {"size": "80"}, {"size": "192"}]}]}}, "use_cudnn_on_gpu": {"b": true}, "data_format": {"s": "TkhXQw=="}, "padding": {"s": "VkFMSUQ="}, "T": {"type": "DT_FLOAT"}, "strides": {"list": {"i": ["1", "1", "1", "1"]}}, "dilations": {"list": {"i": ["1", "1", "1", "1"]}}}}, {"name": "StatefulPartitionedCall/functional_1/inception_v3_1/batch_normalization_4_1/batchnorm/add_1", "op": "AddV2", "input": ["StatefulPartitionedCall/functional_1/inception_v3_1/batch_normalization_4_1/batchnorm/mul", "StatefulPartitionedCall/functional_1/inception_v3_1/batch_normalization_4_1/batchnorm/sub"], "attr": {"T": {"type": "DT_FLOAT"}}}, {"name": "StatefulPartitionedCall/functional_1/inception_v3_1/max_pooling2d_1_2/MaxPool2d", "op": "MaxPool", "input": ["StatefulPartitionedCall/functional_1/inception_v3_1/batch_normalization_4_1/batchnorm/add_1"], "attr": {"explicit_paddings": {"list": {}}, "data_format": {"s": "TkhXQw=="}, "padding": {"s": "VkFMSUQ="}, "T": {"type": "DT_FLOAT"}, "strides": {"list": {"i": ["1", "2", "2", "1"]}}, "ksize": {"list": {"i": ["1", "3", "3", "1"]}}}}, {"name": "StatefulPartitionedCall/functional_1/inception_v3_1/activation_4_1/Relu", "op": "Relu", "input": ["StatefulPartitionedCall/functional_1/inception_v3_1/max_pooling2d_1_2/MaxPool2d"], "attr": {"T": {"type": "DT_FLOAT"}}}, {"name": "StatefulPartitionedCall/functional_1/inception_v3_1/batch_normalization_5_1/batchnorm/mul", "op": "Conv2D", "input": ["StatefulPartitionedCall/functional_1/inception_v3_1/activation_4_1/Relu", "StatefulPartitionedCall/functional_1/inception_v3_1/conv2d_5_1/convolution/merged_input"], "device": "/device:CPU:0", "attr": {"explicit_paddings": {"list": {}}, "_input_shapes": {"list": {"shape": [{"dim": [{"size": "-2"}, {"size": "-3"}, {"size": "-4"}, {"size": "192"}]}, {"dim": [{"size": "1"}, {"size": "1"}, {"size": "192"}, {"size": "64"}]}]}}, "use_cudnn_on_gpu": {"b": true}, "data_format": {"s": "TkhXQw=="}, "padding": {"s": "U0FNRQ=="}, "strides": {"list": {"i": ["1", "1", "1", "1"]}}, "T": {"type": "DT_FLOAT"}, "dilations": {"list": {"i": ["1", "1", "1", "1"]}}}}, {"name": "StatefulPartitionedCall/functional_1/inception_v3_1/batch_normalization_6_1/batchnorm/mul", "op": "Conv2D", "input": ["StatefulPartitionedCall/functional_1/inception_v3_1/activation_4_1/Relu", "StatefulPartitionedCall/functional_1/inception_v3_1/conv2d_6_1/convolution/merged_input"], "device": "/device:CPU:0", "attr": {"explicit_paddings": {"list": {}}, "use_cudnn_on_gpu": {"b": true}, "_input_shapes": {"list": {"shape": [{"dim": [{"size": "-2"}, {"size": "-3"}, {"size": "-4"}, {"size": "192"}]}, {"dim": [{"size": "1"}, {"size": "1"}, {"size": "192"}, {"size": "48"}]}]}}, "padding": {"s": "U0FNRQ=="}, "data_format": {"s": "TkhXQw=="}, "T": {"type": "DT_FLOAT"}, "strides": {"list": {"i": ["1", "1", "1", "1"]}}, "dilations": {"list": {"i": ["1", "1", "1", "1"]}}}}, {"name": "StatefulPartitionedCall/functional_1/inception_v3_1/batch_normalization_8_1/batchnorm/mul", "op": "Conv2D", "input": ["StatefulPartitionedCall/functional_1/inception_v3_1/activation_4_1/Relu", "StatefulPartitionedCall/functional_1/inception_v3_1/conv2d_8_1/convolution/merged_input"], "device": "/device:CPU:0", "attr": {"explicit_paddings": {"list": {}}, "_input_shapes": {"list": {"shape": [{"dim": [{"size": "-2"}, {"size": "-3"}, {"size": "-4"}, {"size": "192"}]}, {"dim": [{"size": "1"}, {"size": "1"}, {"size": "192"}, {"size": "64"}]}]}}, "use_cudnn_on_gpu": {"b": true}, "data_format": {"s": "TkhXQw=="}, "padding": {"s": "U0FNRQ=="}, "T": {"type": "DT_FLOAT"}, "strides": {"list": {"i": ["1", "1", "1", "1"]}}, "dilations": {"list": {"i": ["1", "1", "1", "1"]}}}}, {"name": "StatefulPartitionedCall/functional_1/inception_v3_1/average_pooling2d_1/AvgPool", "op": "AvgPool", "input": ["StatefulPartitionedCall/functional_1/inception_v3_1/activation_4_1/Relu"], "attr": {"data_format": {"s": "TkhXQw=="}, "padding": {"s": "U0FNRQ=="}, "strides": {"list": {"i": ["1", "1", "1", "1"]}}, "T": {"type": "DT_FLOAT"}, "ksize": {"list": {"i": ["1", "3", "3", "1"]}}}}, {"name": "StatefulPartitionedCall/functional_1/inception_v3_1/batch_normalization_5_1/batchnorm/add_1", "op": "AddV2", "input": ["StatefulPartitionedCall/functional_1/inception_v3_1/batch_normalization_5_1/batchnorm/mul", "StatefulPartitionedCall/functional_1/inception_v3_1/batch_normalization_5_1/batchnorm/sub"], "attr": {"T": {"type": "DT_FLOAT"}}}, {"name": "StatefulPartitionedCall/functional_1/inception_v3_1/batch_normalization_6_1/batchnorm/add_1", "op": "AddV2", "input": ["StatefulPartitionedCall/functional_1/inception_v3_1/batch_normalization_6_1/batchnorm/mul", "StatefulPartitionedCall/functional_1/inception_v3_1/batch_normalization_6_1/batchnorm/sub"], "attr": {"T": {"type": "DT_FLOAT"}}}, {"name": "StatefulPartitionedCall/functional_1/inception_v3_1/batch_normalization_8_1/batchnorm/add_1", "op": "AddV2", "input": ["StatefulPartitionedCall/functional_1/inception_v3_1/batch_normalization_8_1/batchnorm/mul", "StatefulPartitionedCall/functional_1/inception_v3_1/batch_normalization_8_1/batchnorm/sub"], "attr": {"T": {"type": "DT_FLOAT"}}}, {"name": "StatefulPartitionedCall/functional_1/inception_v3_1/batch_normalization_11_1/batchnorm/mul", "op": "Conv2D", "input": ["StatefulPartitionedCall/functional_1/inception_v3_1/average_pooling2d_1/AvgPool", "StatefulPartitionedCall/functional_1/inception_v3_1/conv2d_11_1/convolution/merged_input"], "device": "/device:CPU:0", "attr": {"explicit_paddings": {"list": {}}, "_input_shapes": {"list": {"shape": [{"dim": [{"size": "-2"}, {"size": "-3"}, {"size": "-4"}, {"size": "192"}]}, {"dim": [{"size": "1"}, {"size": "1"}, {"size": "192"}, {"size": "32"}]}]}}, "use_cudnn_on_gpu": {"b": true}, "data_format": {"s": "TkhXQw=="}, "padding": {"s": "U0FNRQ=="}, "T": {"type": "DT_FLOAT"}, "strides": {"list": {"i": ["1", "1", "1", "1"]}}, "dilations": {"list": {"i": ["1", "1", "1", "1"]}}}}, {"name": "StatefulPartitionedCall/functional_1/inception_v3_1/activation_6_1/Relu", "op": "Relu", "input": ["StatefulPartitionedCall/functional_1/inception_v3_1/batch_normalization_6_1/batchnorm/add_1"], "attr": {"T": {"type": "DT_FLOAT"}}}, {"name": "StatefulPartitionedCall/functional_1/inception_v3_1/activation_8_1/Relu", "op": "Relu", "input": ["StatefulPartitionedCall/functional_1/inception_v3_1/batch_normalization_8_1/batchnorm/add_1"], "attr": {"T": {"type": "DT_FLOAT"}}}, {"name": "StatefulPartitionedCall/functional_1/inception_v3_1/batch_normalization_11_1/batchnorm/add_1", "op": "AddV2", "input": ["StatefulPartitionedCall/functional_1/inception_v3_1/batch_normalization_11_1/batchnorm/mul", "StatefulPartitionedCall/functional_1/inception_v3_1/batch_normalization_11_1/batchnorm/sub"], "attr": {"T": {"type": "DT_FLOAT"}}}, {"name": "StatefulPartitionedCall/functional_1/inception_v3_1/batch_normalization_7_1/batchnorm/mul", "op": "Conv2D", "input": ["StatefulPartitionedCall/functional_1/inception_v3_1/activation_6_1/Relu", "StatefulPartitionedCall/functional_1/inception_v3_1/conv2d_7_1/convolution/merged_input"], "device": "/device:CPU:0", "attr": {"explicit_paddings": {"list": {}}, "use_cudnn_on_gpu": {"b": true}, "_input_shapes": {"list": {"shape": [{"dim": [{"size": "-2"}, {"size": "-3"}, {"size": "-4"}, {"size": "48"}]}, {"dim": [{"size": "5"}, {"size": "5"}, {"size": "48"}, {"size": "64"}]}]}}, "padding": {"s": "U0FNRQ=="}, "data_format": {"s": "TkhXQw=="}, "T": {"type": "DT_FLOAT"}, "strides": {"list": {"i": ["1", "1", "1", "1"]}}, "dilations": {"list": {"i": ["1", "1", "1", "1"]}}}}, {"name": "StatefulPartitionedCall/functional_1/inception_v3_1/batch_normalization_9_1/batchnorm/mul", "op": "Conv2D", "input": ["StatefulPartitionedCall/functional_1/inception_v3_1/activation_8_1/Relu", "StatefulPartitionedCall/functional_1/inception_v3_1/conv2d_9_1/convolution/merged_input"], "device": "/device:CPU:0", "attr": {"explicit_paddings": {"list": {}}, "use_cudnn_on_gpu": {"b": true}, "_input_shapes": {"list": {"shape": [{"dim": [{"size": "-2"}, {"size": "-3"}, {"size": "-4"}, {"size": "64"}]}, {"dim": [{"size": "3"}, {"size": "3"}, {"size": "64"}, {"size": "96"}]}]}}, "data_format": {"s": "TkhXQw=="}, "padding": {"s": "U0FNRQ=="}, "T": {"type": "DT_FLOAT"}, "strides": {"list": {"i": ["1", "1", "1", "1"]}}, "dilations": {"list": {"i": ["1", "1", "1", "1"]}}}}, {"name": "StatefulPartitionedCall/functional_1/inception_v3_1/batch_normalization_7_1/batchnorm/add_1", "op": "AddV2", "input": ["StatefulPartitionedCall/functional_1/inception_v3_1/batch_normalization_7_1/batchnorm/mul", "StatefulPartitionedCall/functional_1/inception_v3_1/batch_normalization_7_1/batchnorm/sub"], "attr": {"T": {"type": "DT_FLOAT"}}}, {"name": "StatefulPartitionedCall/functional_1/inception_v3_1/batch_normalization_9_1/batchnorm/add_1", "op": "AddV2", "input": ["StatefulPartitionedCall/functional_1/inception_v3_1/batch_normalization_9_1/batchnorm/mul", "StatefulPartitionedCall/functional_1/inception_v3_1/batch_normalization_9_1/batchnorm/sub"], "attr": {"T": {"type": "DT_FLOAT"}}}, {"name": "StatefulPartitionedCall/functional_1/inception_v3_1/activation_9_1/Relu", "op": "Relu", "input": ["StatefulPartitionedCall/functional_1/inception_v3_1/batch_normalization_9_1/batchnorm/add_1"], "attr": {"T": {"type": "DT_FLOAT"}}}, {"name": "StatefulPartitionedCall/functional_1/inception_v3_1/batch_normalization_10_1/batchnorm/mul", "op": "Conv2D", "input": ["StatefulPartitionedCall/functional_1/inception_v3_1/activation_9_1/Relu", "StatefulPartitionedCall/functional_1/inception_v3_1/conv2d_10_1/convolution/merged_input"], "device": "/device:CPU:0", "attr": {"explicit_paddings": {"list": {}}, "_input_shapes": {"list": {"shape": [{"dim": [{"size": "-2"}, {"size": "-3"}, {"size": "-4"}, {"size": "96"}]}, {"dim": [{"size": "3"}, {"size": "3"}, {"size": "96"}, {"size": "96"}]}]}}, "use_cudnn_on_gpu": {"b": true}, "data_format": {"s": "TkhXQw=="}, "padding": {"s": "U0FNRQ=="}, "strides": {"list": {"i": ["1", "1", "1", "1"]}}, "T": {"type": "DT_FLOAT"}, "dilations": {"list": {"i": ["1", "1", "1", "1"]}}}}, {"name": "StatefulPartitionedCall/functional_1/inception_v3_1/batch_normalization_10_1/batchnorm/add_1", "op": "AddV2", "input": ["StatefulPartitionedCall/functional_1/inception_v3_1/batch_normalization_10_1/batchnorm/mul", "StatefulPartitionedCall/functional_1/inception_v3_1/batch_normalization_10_1/batchnorm/sub"], "attr": {"T": {"type": "DT_FLOAT"}}}, {"name": "StatefulPartitionedCall/functional_1/inception_v3_1/mixed0_1/concat", "op": "ConcatV2", "input": ["StatefulPartitionedCall/functional_1/inception_v3_1/batch_normalization_5_1/batchnorm/add_1", "StatefulPartitionedCall/functional_1/inception_v3_1/batch_normalization_7_1/batchnorm/add_1", "StatefulPartitionedCall/functional_1/inception_v3_1/batch_normalization_10_1/batchnorm/add_1", "StatefulPartitionedCall/functional_1/inception_v3_1/batch_normalization_11_1/batchnorm/add_1", "StatefulPartitionedCall/functional_1/inception_v3_1/mixed0_1/concat/axis"], "attr": {"Tidx": {"type": "DT_INT32"}, "T": {"type": "DT_FLOAT"}, "N": {"i": "4"}}}, {"name": "StatefulPartitionedCall/functional_1/inception_v3_1/activation_5_1/Relu", "op": "Relu", "input": ["StatefulPartitionedCall/functional_1/inception_v3_1/mixed0_1/concat"], "attr": {"T": {"type": "DT_FLOAT"}}}, {"name": "StatefulPartitionedCall/functional_1/inception_v3_1/batch_normalization_12_1/batchnorm/mul", "op": "Conv2D", "input": ["StatefulPartitionedCall/functional_1/inception_v3_1/activation_5_1/Relu", "StatefulPartitionedCall/functional_1/inception_v3_1/conv2d_12_1/convolution/merged_input"], "device": "/device:CPU:0", "attr": {"explicit_paddings": {"list": {}}, "use_cudnn_on_gpu": {"b": true}, "_input_shapes": {"list": {"shape": [{"dim": [{"size": "-2"}, {"size": "-3"}, {"size": "-4"}, {"size": "256"}]}, {"dim": [{"size": "1"}, {"size": "1"}, {"size": "256"}, {"size": "64"}]}]}}, "padding": {"s": "U0FNRQ=="}, "data_format": {"s": "TkhXQw=="}, "strides": {"list": {"i": ["1", "1", "1", "1"]}}, "T": {"type": "DT_FLOAT"}, "dilations": {"list": {"i": ["1", "1", "1", "1"]}}}}, {"name": "StatefulPartitionedCall/functional_1/inception_v3_1/batch_normalization_13_1/batchnorm/mul", "op": "Conv2D", "input": ["StatefulPartitionedCall/functional_1/inception_v3_1/activation_5_1/Relu", "StatefulPartitionedCall/functional_1/inception_v3_1/conv2d_13_1/convolution/merged_input"], "device": "/device:CPU:0", "attr": {"explicit_paddings": {"list": {}}, "_input_shapes": {"list": {"shape": [{"dim": [{"size": "-2"}, {"size": "-3"}, {"size": "-4"}, {"size": "256"}]}, {"dim": [{"size": "1"}, {"size": "1"}, {"size": "256"}, {"size": "48"}]}]}}, "use_cudnn_on_gpu": {"b": true}, "data_format": {"s": "TkhXQw=="}, "padding": {"s": "U0FNRQ=="}, "T": {"type": "DT_FLOAT"}, "strides": {"list": {"i": ["1", "1", "1", "1"]}}, "dilations": {"list": {"i": ["1", "1", "1", "1"]}}}}, {"name": "StatefulPartitionedCall/functional_1/inception_v3_1/batch_normalization_15_1/batchnorm/mul", "op": "Conv2D", "input": ["StatefulPartitionedCall/functional_1/inception_v3_1/activation_5_1/Relu", "StatefulPartitionedCall/functional_1/inception_v3_1/conv2d_15_1/convolution/merged_input"], "device": "/device:CPU:0", "attr": {"explicit_paddings": {"list": {}}, "_input_shapes": {"list": {"shape": [{"dim": [{"size": "-2"}, {"size": "-3"}, {"size": "-4"}, {"size": "256"}]}, {"dim": [{"size": "1"}, {"size": "1"}, {"size": "256"}, {"size": "64"}]}]}}, "use_cudnn_on_gpu": {"b": true}, "data_format": {"s": "TkhXQw=="}, "padding": {"s": "U0FNRQ=="}, "T": {"type": "DT_FLOAT"}, "strides": {"list": {"i": ["1", "1", "1", "1"]}}, "dilations": {"list": {"i": ["1", "1", "1", "1"]}}}}, {"name": "StatefulPartitionedCall/functional_1/inception_v3_1/average_pooling2d_1_2/AvgPool", "op": "AvgPool", "input": ["StatefulPartitionedCall/functional_1/inception_v3_1/activation_5_1/Relu"], "attr": {"padding": {"s": "U0FNRQ=="}, "data_format": {"s": "TkhXQw=="}, "T": {"type": "DT_FLOAT"}, "strides": {"list": {"i": ["1", "1", "1", "1"]}}, "ksize": {"list": {"i": ["1", "3", "3", "1"]}}}}, {"name": "StatefulPartitionedCall/functional_1/inception_v3_1/batch_normalization_12_1/batchnorm/add_1", "op": "AddV2", "input": ["StatefulPartitionedCall/functional_1/inception_v3_1/batch_normalization_12_1/batchnorm/mul", "StatefulPartitionedCall/functional_1/inception_v3_1/batch_normalization_12_1/batchnorm/sub"], "attr": {"T": {"type": "DT_FLOAT"}}}, {"name": "StatefulPartitionedCall/functional_1/inception_v3_1/batch_normalization_13_1/batchnorm/add_1", "op": "AddV2", "input": ["StatefulPartitionedCall/functional_1/inception_v3_1/batch_normalization_13_1/batchnorm/mul", "StatefulPartitionedCall/functional_1/inception_v3_1/batch_normalization_13_1/batchnorm/sub"], "attr": {"T": {"type": "DT_FLOAT"}}}, {"name": "StatefulPartitionedCall/functional_1/inception_v3_1/batch_normalization_15_1/batchnorm/add_1", "op": "AddV2", "input": ["StatefulPartitionedCall/functional_1/inception_v3_1/batch_normalization_15_1/batchnorm/mul", "StatefulPartitionedCall/functional_1/inception_v3_1/batch_normalization_15_1/batchnorm/sub"], "attr": {"T": {"type": "DT_FLOAT"}}}, {"name": "StatefulPartitionedCall/functional_1/inception_v3_1/batch_normalization_18_1/batchnorm/mul", "op": "Conv2D", "input": ["StatefulPartitionedCall/functional_1/inception_v3_1/average_pooling2d_1_2/AvgPool", "StatefulPartitionedCall/functional_1/inception_v3_1/conv2d_18_1/convolution/merged_input"], "device": "/device:CPU:0", "attr": {"explicit_paddings": {"list": {}}, "_input_shapes": {"list": {"shape": [{"dim": [{"size": "-2"}, {"size": "-3"}, {"size": "-4"}, {"size": "256"}]}, {"dim": [{"size": "1"}, {"size": "1"}, {"size": "256"}, {"size": "64"}]}]}}, "use_cudnn_on_gpu": {"b": true}, "padding": {"s": "U0FNRQ=="}, "data_format": {"s": "TkhXQw=="}, "T": {"type": "DT_FLOAT"}, "strides": {"list": {"i": ["1", "1", "1", "1"]}}, "dilations": {"list": {"i": ["1", "1", "1", "1"]}}}}, {"name": "StatefulPartitionedCall/functional_1/inception_v3_1/activation_13_1/Relu", "op": "Relu", "input": ["StatefulPartitionedCall/functional_1/inception_v3_1/batch_normalization_13_1/batchnorm/add_1"], "attr": {"T": {"type": "DT_FLOAT"}}}, {"name": "StatefulPartitionedCall/functional_1/inception_v3_1/activation_15_1/Relu", "op": "Relu", "input": ["StatefulPartitionedCall/functional_1/inception_v3_1/batch_normalization_15_1/batchnorm/add_1"], "attr": {"T": {"type": "DT_FLOAT"}}}, {"name": "StatefulPartitionedCall/functional_1/inception_v3_1/batch_normalization_18_1/batchnorm/add_1", "op": "AddV2", "input": ["StatefulPartitionedCall/functional_1/inception_v3_1/batch_normalization_18_1/batchnorm/mul", "StatefulPartitionedCall/functional_1/inception_v3_1/batch_normalization_18_1/batchnorm/sub"], "attr": {"T": {"type": "DT_FLOAT"}}}, {"name": "StatefulPartitionedCall/functional_1/inception_v3_1/batch_normalization_14_1/batchnorm/mul", "op": "Conv2D", "input": ["StatefulPartitionedCall/functional_1/inception_v3_1/activation_13_1/Relu", "StatefulPartitionedCall/functional_1/inception_v3_1/conv2d_14_1/convolution/merged_input"], "device": "/device:CPU:0", "attr": {"explicit_paddings": {"list": {}}, "_input_shapes": {"list": {"shape": [{"dim": [{"size": "-2"}, {"size": "-3"}, {"size": "-4"}, {"size": "48"}]}, {"dim": [{"size": "5"}, {"size": "5"}, {"size": "48"}, {"size": "64"}]}]}}, "use_cudnn_on_gpu": {"b": true}, "data_format": {"s": "TkhXQw=="}, "padding": {"s": "U0FNRQ=="}, "T": {"type": "DT_FLOAT"}, "strides": {"list": {"i": ["1", "1", "1", "1"]}}, "dilations": {"list": {"i": ["1", "1", "1", "1"]}}}}, {"name": "StatefulPartitionedCall/functional_1/inception_v3_1/batch_normalization_16_1/batchnorm/mul", "op": "Conv2D", "input": ["StatefulPartitionedCall/functional_1/inception_v3_1/activation_15_1/Relu", "StatefulPartitionedCall/functional_1/inception_v3_1/conv2d_16_1/convolution/merged_input"], "device": "/device:CPU:0", "attr": {"explicit_paddings": {"list": {}}, "use_cudnn_on_gpu": {"b": true}, "_input_shapes": {"list": {"shape": [{"dim": [{"size": "-2"}, {"size": "-3"}, {"size": "-4"}, {"size": "64"}]}, {"dim": [{"size": "3"}, {"size": "3"}, {"size": "64"}, {"size": "96"}]}]}}, "padding": {"s": "U0FNRQ=="}, "data_format": {"s": "TkhXQw=="}, "T": {"type": "DT_FLOAT"}, "strides": {"list": {"i": ["1", "1", "1", "1"]}}, "dilations": {"list": {"i": ["1", "1", "1", "1"]}}}}, {"name": "StatefulPartitionedCall/functional_1/inception_v3_1/batch_normalization_14_1/batchnorm/add_1", "op": "AddV2", "input": ["StatefulPartitionedCall/functional_1/inception_v3_1/batch_normalization_14_1/batchnorm/mul", "StatefulPartitionedCall/functional_1/inception_v3_1/batch_normalization_14_1/batchnorm/sub"], "attr": {"T": {"type": "DT_FLOAT"}}}, {"name": "StatefulPartitionedCall/functional_1/inception_v3_1/batch_normalization_16_1/batchnorm/add_1", "op": "AddV2", "input": ["StatefulPartitionedCall/functional_1/inception_v3_1/batch_normalization_16_1/batchnorm/mul", "StatefulPartitionedCall/functional_1/inception_v3_1/batch_normalization_16_1/batchnorm/sub"], "attr": {"T": {"type": "DT_FLOAT"}}}, {"name": "StatefulPartitionedCall/functional_1/inception_v3_1/activation_16_1/Relu", "op": "Relu", "input": ["StatefulPartitionedCall/functional_1/inception_v3_1/batch_normalization_16_1/batchnorm/add_1"], "attr": {"T": {"type": "DT_FLOAT"}}}, {"name": "StatefulPartitionedCall/functional_1/inception_v3_1/batch_normalization_17_1/batchnorm/mul", "op": "Conv2D", "input": ["StatefulPartitionedCall/functional_1/inception_v3_1/activation_16_1/Relu", "StatefulPartitionedCall/functional_1/inception_v3_1/conv2d_17_1/convolution/merged_input"], "device": "/device:CPU:0", "attr": {"explicit_paddings": {"list": {}}, "_input_shapes": {"list": {"shape": [{"dim": [{"size": "-2"}, {"size": "-3"}, {"size": "-4"}, {"size": "96"}]}, {"dim": [{"size": "3"}, {"size": "3"}, {"size": "96"}, {"size": "96"}]}]}}, "use_cudnn_on_gpu": {"b": true}, "padding": {"s": "U0FNRQ=="}, "data_format": {"s": "TkhXQw=="}, "strides": {"list": {"i": ["1", "1", "1", "1"]}}, "T": {"type": "DT_FLOAT"}, "dilations": {"list": {"i": ["1", "1", "1", "1"]}}}}, {"name": "StatefulPartitionedCall/functional_1/inception_v3_1/batch_normalization_17_1/batchnorm/add_1", "op": "AddV2", "input": ["StatefulPartitionedCall/functional_1/inception_v3_1/batch_normalization_17_1/batchnorm/mul", "StatefulPartitionedCall/functional_1/inception_v3_1/batch_normalization_17_1/batchnorm/sub"], "attr": {"T": {"type": "DT_FLOAT"}}}, {"name": "StatefulPartitionedCall/functional_1/inception_v3_1/mixed1_1/concat", "op": "ConcatV2", "input": ["StatefulPartitionedCall/functional_1/inception_v3_1/batch_normalization_12_1/batchnorm/add_1", "StatefulPartitionedCall/functional_1/inception_v3_1/batch_normalization_14_1/batchnorm/add_1", "StatefulPartitionedCall/functional_1/inception_v3_1/batch_normalization_17_1/batchnorm/add_1", "StatefulPartitionedCall/functional_1/inception_v3_1/batch_normalization_18_1/batchnorm/add_1", "StatefulPartitionedCall/functional_1/inception_v3_1/mixed1_1/concat/axis"], "attr": {"Tidx": {"type": "DT_INT32"}, "T": {"type": "DT_FLOAT"}, "N": {"i": "4"}}}, {"name": "StatefulPartitionedCall/functional_1/inception_v3_1/activation_12_1/Relu", "op": "Relu", "input": ["StatefulPartitionedCall/functional_1/inception_v3_1/mixed1_1/concat"], "attr": {"T": {"type": "DT_FLOAT"}}}, {"name": "StatefulPartitionedCall/functional_1/inception_v3_1/batch_normalization_19_1/batchnorm/mul", "op": "Conv2D", "input": ["StatefulPartitionedCall/functional_1/inception_v3_1/activation_12_1/Relu", "StatefulPartitionedCall/functional_1/inception_v3_1/conv2d_19_1/convolution/merged_input"], "device": "/device:CPU:0", "attr": {"explicit_paddings": {"list": {}}, "_input_shapes": {"list": {"shape": [{"dim": [{"size": "-2"}, {"size": "-3"}, {"size": "-4"}, {"size": "288"}]}, {"dim": [{"size": "1"}, {"size": "1"}, {"size": "288"}, {"size": "64"}]}]}}, "use_cudnn_on_gpu": {"b": true}, "data_format": {"s": "TkhXQw=="}, "padding": {"s": "U0FNRQ=="}, "T": {"type": "DT_FLOAT"}, "strides": {"list": {"i": ["1", "1", "1", "1"]}}, "dilations": {"list": {"i": ["1", "1", "1", "1"]}}}}, {"name": "StatefulPartitionedCall/functional_1/inception_v3_1/batch_normalization_20_1/batchnorm/mul", "op": "Conv2D", "input": ["StatefulPartitionedCall/functional_1/inception_v3_1/activation_12_1/Relu", "StatefulPartitionedCall/functional_1/inception_v3_1/conv2d_20_1/convolution/merged_input"], "device": "/device:CPU:0", "attr": {"explicit_paddings": {"list": {}}, "_input_shapes": {"list": {"shape": [{"dim": [{"size": "-2"}, {"size": "-3"}, {"size": "-4"}, {"size": "288"}]}, {"dim": [{"size": "1"}, {"size": "1"}, {"size": "288"}, {"size": "48"}]}]}}, "use_cudnn_on_gpu": {"b": true}, "padding": {"s": "U0FNRQ=="}, "data_format": {"s": "TkhXQw=="}, "T": {"type": "DT_FLOAT"}, "strides": {"list": {"i": ["1", "1", "1", "1"]}}, "dilations": {"list": {"i": ["1", "1", "1", "1"]}}}}, {"name": "StatefulPartitionedCall/functional_1/inception_v3_1/batch_normalization_22_1/batchnorm/mul", "op": "Conv2D", "input": ["StatefulPartitionedCall/functional_1/inception_v3_1/activation_12_1/Relu", "StatefulPartitionedCall/functional_1/inception_v3_1/conv2d_22_1/convolution/merged_input"], "device": "/device:CPU:0", "attr": {"explicit_paddings": {"list": {}}, "_input_shapes": {"list": {"shape": [{"dim": [{"size": "-2"}, {"size": "-3"}, {"size": "-4"}, {"size": "288"}]}, {"dim": [{"size": "1"}, {"size": "1"}, {"size": "288"}, {"size": "64"}]}]}}, "use_cudnn_on_gpu": {"b": true}, "padding": {"s": "U0FNRQ=="}, "data_format": {"s": "TkhXQw=="}, "strides": {"list": {"i": ["1", "1", "1", "1"]}}, "T": {"type": "DT_FLOAT"}, "dilations": {"list": {"i": ["1", "1", "1", "1"]}}}}, {"name": "StatefulPartitionedCall/functional_1/inception_v3_1/average_pooling2d_2_1/AvgPool", "op": "AvgPool", "input": ["StatefulPartitionedCall/functional_1/inception_v3_1/activation_12_1/Relu"], "attr": {"data_format": {"s": "TkhXQw=="}, "padding": {"s": "U0FNRQ=="}, "strides": {"list": {"i": ["1", "1", "1", "1"]}}, "T": {"type": "DT_FLOAT"}, "ksize": {"list": {"i": ["1", "3", "3", "1"]}}}}, {"name": "StatefulPartitionedCall/functional_1/inception_v3_1/batch_normalization_19_1/batchnorm/add_1", "op": "AddV2", "input": ["StatefulPartitionedCall/functional_1/inception_v3_1/batch_normalization_19_1/batchnorm/mul", "StatefulPartitionedCall/functional_1/inception_v3_1/batch_normalization_19_1/batchnorm/sub"], "attr": {"T": {"type": "DT_FLOAT"}}}, {"name": "StatefulPartitionedCall/functional_1/inception_v3_1/batch_normalization_20_1/batchnorm/add_1", "op": "AddV2", "input": ["StatefulPartitionedCall/functional_1/inception_v3_1/batch_normalization_20_1/batchnorm/mul", "StatefulPartitionedCall/functional_1/inception_v3_1/batch_normalization_20_1/batchnorm/sub"], "attr": {"T": {"type": "DT_FLOAT"}}}, {"name": "StatefulPartitionedCall/functional_1/inception_v3_1/batch_normalization_22_1/batchnorm/add_1", "op": "AddV2", "input": ["StatefulPartitionedCall/functional_1/inception_v3_1/batch_normalization_22_1/batchnorm/mul", "StatefulPartitionedCall/functional_1/inception_v3_1/batch_normalization_22_1/batchnorm/sub"], "attr": {"T": {"type": "DT_FLOAT"}}}, {"name": "StatefulPartitionedCall/functional_1/inception_v3_1/batch_normalization_25_1/batchnorm/mul", "op": "Conv2D", "input": ["StatefulPartitionedCall/functional_1/inception_v3_1/average_pooling2d_2_1/AvgPool", "StatefulPartitionedCall/functional_1/inception_v3_1/conv2d_25_1/convolution/merged_input"], "device": "/device:CPU:0", "attr": {"explicit_paddings": {"list": {}}, "_input_shapes": {"list": {"shape": [{"dim": [{"size": "-2"}, {"size": "-3"}, {"size": "-4"}, {"size": "288"}]}, {"dim": [{"size": "1"}, {"size": "1"}, {"size": "288"}, {"size": "64"}]}]}}, "use_cudnn_on_gpu": {"b": true}, "data_format": {"s": "TkhXQw=="}, "padding": {"s": "U0FNRQ=="}, "T": {"type": "DT_FLOAT"}, "strides": {"list": {"i": ["1", "1", "1", "1"]}}, "dilations": {"list": {"i": ["1", "1", "1", "1"]}}}}, {"name": "StatefulPartitionedCall/functional_1/inception_v3_1/activation_20_1/Relu", "op": "Relu", "input": ["StatefulPartitionedCall/functional_1/inception_v3_1/batch_normalization_20_1/batchnorm/add_1"], "attr": {"T": {"type": "DT_FLOAT"}}}, {"name": "StatefulPartitionedCall/functional_1/inception_v3_1/activation_22_1/Relu", "op": "Relu", "input": ["StatefulPartitionedCall/functional_1/inception_v3_1/batch_normalization_22_1/batchnorm/add_1"], "attr": {"T": {"type": "DT_FLOAT"}}}, {"name": "StatefulPartitionedCall/functional_1/inception_v3_1/batch_normalization_25_1/batchnorm/add_1", "op": "AddV2", "input": ["StatefulPartitionedCall/functional_1/inception_v3_1/batch_normalization_25_1/batchnorm/mul", "StatefulPartitionedCall/functional_1/inception_v3_1/batch_normalization_25_1/batchnorm/sub"], "attr": {"T": {"type": "DT_FLOAT"}}}, {"name": "StatefulPartitionedCall/functional_1/inception_v3_1/batch_normalization_21_1/batchnorm/mul", "op": "Conv2D", "input": ["StatefulPartitionedCall/functional_1/inception_v3_1/activation_20_1/Relu", "StatefulPartitionedCall/functional_1/inception_v3_1/conv2d_21_1/convolution/merged_input"], "device": "/device:CPU:0", "attr": {"explicit_paddings": {"list": {}}, "use_cudnn_on_gpu": {"b": true}, "_input_shapes": {"list": {"shape": [{"dim": [{"size": "-2"}, {"size": "-3"}, {"size": "-4"}, {"size": "48"}]}, {"dim": [{"size": "5"}, {"size": "5"}, {"size": "48"}, {"size": "64"}]}]}}, "padding": {"s": "U0FNRQ=="}, "data_format": {"s": "TkhXQw=="}, "T": {"type": "DT_FLOAT"}, "strides": {"list": {"i": ["1", "1", "1", "1"]}}, "dilations": {"list": {"i": ["1", "1", "1", "1"]}}}}, {"name": "StatefulPartitionedCall/functional_1/inception_v3_1/batch_normalization_23_1/batchnorm/mul", "op": "Conv2D", "input": ["StatefulPartitionedCall/functional_1/inception_v3_1/activation_22_1/Relu", "StatefulPartitionedCall/functional_1/inception_v3_1/conv2d_23_1/convolution/merged_input"], "device": "/device:CPU:0", "attr": {"explicit_paddings": {"list": {}}, "_input_shapes": {"list": {"shape": [{"dim": [{"size": "-2"}, {"size": "-3"}, {"size": "-4"}, {"size": "64"}]}, {"dim": [{"size": "3"}, {"size": "3"}, {"size": "64"}, {"size": "96"}]}]}}, "use_cudnn_on_gpu": {"b": true}, "padding": {"s": "U0FNRQ=="}, "data_format": {"s": "TkhXQw=="}, "T": {"type": "DT_FLOAT"}, "strides": {"list": {"i": ["1", "1", "1", "1"]}}, "dilations": {"list": {"i": ["1", "1", "1", "1"]}}}}, {"name": "StatefulPartitionedCall/functional_1/inception_v3_1/batch_normalization_21_1/batchnorm/add_1", "op": "AddV2", "input": ["StatefulPartitionedCall/functional_1/inception_v3_1/batch_normalization_21_1/batchnorm/mul", "StatefulPartitionedCall/functional_1/inception_v3_1/batch_normalization_21_1/batchnorm/sub"], "attr": {"T": {"type": "DT_FLOAT"}}}, {"name": "StatefulPartitionedCall/functional_1/inception_v3_1/batch_normalization_23_1/batchnorm/add_1", "op": "AddV2", "input": ["StatefulPartitionedCall/functional_1/inception_v3_1/batch_normalization_23_1/batchnorm/mul", "StatefulPartitionedCall/functional_1/inception_v3_1/batch_normalization_23_1/batchnorm/sub"], "attr": {"T": {"type": "DT_FLOAT"}}}, {"name": "StatefulPartitionedCall/functional_1/inception_v3_1/activation_23_1/Relu", "op": "Relu", "input": ["StatefulPartitionedCall/functional_1/inception_v3_1/batch_normalization_23_1/batchnorm/add_1"], "attr": {"T": {"type": "DT_FLOAT"}}}, {"name": "StatefulPartitionedCall/functional_1/inception_v3_1/batch_normalization_24_1/batchnorm/mul", "op": "Conv2D", "input": ["StatefulPartitionedCall/functional_1/inception_v3_1/activation_23_1/Relu", "StatefulPartitionedCall/functional_1/inception_v3_1/conv2d_24_1/convolution/merged_input"], "device": "/device:CPU:0", "attr": {"explicit_paddings": {"list": {}}, "use_cudnn_on_gpu": {"b": true}, "_input_shapes": {"list": {"shape": [{"dim": [{"size": "-2"}, {"size": "-3"}, {"size": "-4"}, {"size": "96"}]}, {"dim": [{"size": "3"}, {"size": "3"}, {"size": "96"}, {"size": "96"}]}]}}, "data_format": {"s": "TkhXQw=="}, "padding": {"s": "U0FNRQ=="}, "T": {"type": "DT_FLOAT"}, "strides": {"list": {"i": ["1", "1", "1", "1"]}}, "dilations": {"list": {"i": ["1", "1", "1", "1"]}}}}, {"name": "StatefulPartitionedCall/functional_1/inception_v3_1/batch_normalization_24_1/batchnorm/add_1", "op": "AddV2", "input": ["StatefulPartitionedCall/functional_1/inception_v3_1/batch_normalization_24_1/batchnorm/mul", "StatefulPartitionedCall/functional_1/inception_v3_1/batch_normalization_24_1/batchnorm/sub"], "attr": {"T": {"type": "DT_FLOAT"}}}, {"name": "StatefulPartitionedCall/functional_1/inception_v3_1/mixed2_1/concat", "op": "ConcatV2", "input": ["StatefulPartitionedCall/functional_1/inception_v3_1/batch_normalization_19_1/batchnorm/add_1", "StatefulPartitionedCall/functional_1/inception_v3_1/batch_normalization_21_1/batchnorm/add_1", "StatefulPartitionedCall/functional_1/inception_v3_1/batch_normalization_24_1/batchnorm/add_1", "StatefulPartitionedCall/functional_1/inception_v3_1/batch_normalization_25_1/batchnorm/add_1", "StatefulPartitionedCall/functional_1/inception_v3_1/mixed2_1/concat/axis"], "attr": {"Tidx": {"type": "DT_INT32"}, "T": {"type": "DT_FLOAT"}, "N": {"i": "4"}}}, {"name": "StatefulPartitionedCall/functional_1/inception_v3_1/activation_19_1/Relu", "op": "Relu", "input": ["StatefulPartitionedCall/functional_1/inception_v3_1/mixed2_1/concat"], "attr": {"T": {"type": "DT_FLOAT"}}}, {"name": "StatefulPartitionedCall/functional_1/inception_v3_1/batch_normalization_26_1/batchnorm/mul", "op": "Conv2D", "input": ["StatefulPartitionedCall/functional_1/inception_v3_1/activation_19_1/Relu", "StatefulPartitionedCall/functional_1/inception_v3_1/conv2d_26_1/convolution/merged_input"], "device": "/device:CPU:0", "attr": {"explicit_paddings": {"list": {}}, "use_cudnn_on_gpu": {"b": true}, "_input_shapes": {"list": {"shape": [{"dim": [{"size": "-2"}, {"size": "-3"}, {"size": "-4"}, {"size": "288"}]}, {"dim": [{"size": "3"}, {"size": "3"}, {"size": "288"}, {"size": "384"}]}]}}, "padding": {"s": "VkFMSUQ="}, "data_format": {"s": "TkhXQw=="}, "strides": {"list": {"i": ["1", "2", "2", "1"]}}, "T": {"type": "DT_FLOAT"}, "dilations": {"list": {"i": ["1", "1", "1", "1"]}}}}, {"name": "StatefulPartitionedCall/functional_1/inception_v3_1/batch_normalization_27_1/batchnorm/mul", "op": "Conv2D", "input": ["StatefulPartitionedCall/functional_1/inception_v3_1/activation_19_1/Relu", "StatefulPartitionedCall/functional_1/inception_v3_1/conv2d_27_1/convolution/merged_input"], "device": "/device:CPU:0", "attr": {"explicit_paddings": {"list": {}}, "use_cudnn_on_gpu": {"b": true}, "_input_shapes": {"list": {"shape": [{"dim": [{"size": "-2"}, {"size": "-3"}, {"size": "-4"}, {"size": "288"}]}, {"dim": [{"size": "1"}, {"size": "1"}, {"size": "288"}, {"size": "64"}]}]}}, "data_format": {"s": "TkhXQw=="}, "padding": {"s": "U0FNRQ=="}, "T": {"type": "DT_FLOAT"}, "strides": {"list": {"i": ["1", "1", "1", "1"]}}, "dilations": {"list": {"i": ["1", "1", "1", "1"]}}}}, {"name": "StatefulPartitionedCall/functional_1/inception_v3_1/max_pooling2d_2_1/MaxPool2d", "op": "MaxPool", "input": ["StatefulPartitionedCall/functional_1/inception_v3_1/activation_19_1/Relu"], "attr": {"explicit_paddings": {"list": {}}, "data_format": {"s": "TkhXQw=="}, "padding": {"s": "VkFMSUQ="}, "strides": {"list": {"i": ["1", "2", "2", "1"]}}, "T": {"type": "DT_FLOAT"}, "ksize": {"list": {"i": ["1", "3", "3", "1"]}}}}, {"name": "StatefulPartitionedCall/functional_1/inception_v3_1/batch_normalization_26_1/batchnorm/add_1", "op": "AddV2", "input": ["StatefulPartitionedCall/functional_1/inception_v3_1/batch_normalization_26_1/batchnorm/mul", "StatefulPartitionedCall/functional_1/inception_v3_1/batch_normalization_26_1/batchnorm/sub"], "attr": {"T": {"type": "DT_FLOAT"}}}, {"name": "StatefulPartitionedCall/functional_1/inception_v3_1/batch_normalization_27_1/batchnorm/add_1", "op": "AddV2", "input": ["StatefulPartitionedCall/functional_1/inception_v3_1/batch_normalization_27_1/batchnorm/mul", "StatefulPartitionedCall/functional_1/inception_v3_1/batch_normalization_27_1/batchnorm/sub"], "attr": {"T": {"type": "DT_FLOAT"}}}, {"name": "StatefulPartitionedCall/functional_1/inception_v3_1/activation_26_1/Relu", "op": "Relu", "input": ["StatefulPartitionedCall/functional_1/inception_v3_1/batch_normalization_26_1/batchnorm/add_1"], "attr": {"T": {"type": "DT_FLOAT"}}}, {"name": "StatefulPartitionedCall/functional_1/inception_v3_1/activation_27_1/Relu", "op": "Relu", "input": ["StatefulPartitionedCall/functional_1/inception_v3_1/batch_normalization_27_1/batchnorm/add_1"], "attr": {"T": {"type": "DT_FLOAT"}}}, {"name": "StatefulPartitionedCall/functional_1/inception_v3_1/batch_normalization_28_1/batchnorm/mul", "op": "Conv2D", "input": ["StatefulPartitionedCall/functional_1/inception_v3_1/activation_27_1/Relu", "StatefulPartitionedCall/functional_1/inception_v3_1/conv2d_28_1/convolution/merged_input"], "device": "/device:CPU:0", "attr": {"explicit_paddings": {"list": {}}, "use_cudnn_on_gpu": {"b": true}, "_input_shapes": {"list": {"shape": [{"dim": [{"size": "-2"}, {"size": "-3"}, {"size": "-4"}, {"size": "64"}]}, {"dim": [{"size": "3"}, {"size": "3"}, {"size": "64"}, {"size": "96"}]}]}}, "padding": {"s": "U0FNRQ=="}, "data_format": {"s": "TkhXQw=="}, "strides": {"list": {"i": ["1", "1", "1", "1"]}}, "T": {"type": "DT_FLOAT"}, "dilations": {"list": {"i": ["1", "1", "1", "1"]}}}}, {"name": "StatefulPartitionedCall/functional_1/inception_v3_1/batch_normalization_28_1/batchnorm/add_1", "op": "AddV2", "input": ["StatefulPartitionedCall/functional_1/inception_v3_1/batch_normalization_28_1/batchnorm/mul", "StatefulPartitionedCall/functional_1/inception_v3_1/batch_normalization_28_1/batchnorm/sub"], "attr": {"T": {"type": "DT_FLOAT"}}}, {"name": "StatefulPartitionedCall/functional_1/inception_v3_1/activation_28_1/Relu", "op": "Relu", "input": ["StatefulPartitionedCall/functional_1/inception_v3_1/batch_normalization_28_1/batchnorm/add_1"], "attr": {"T": {"type": "DT_FLOAT"}}}, {"name": "StatefulPartitionedCall/functional_1/inception_v3_1/batch_normalization_29_1/batchnorm/mul", "op": "Conv2D", "input": ["StatefulPartitionedCall/functional_1/inception_v3_1/activation_28_1/Relu", "StatefulPartitionedCall/functional_1/inception_v3_1/conv2d_29_1/convolution/merged_input"], "device": "/device:CPU:0", "attr": {"explicit_paddings": {"list": {}}, "_input_shapes": {"list": {"shape": [{"dim": [{"size": "-2"}, {"size": "-3"}, {"size": "-4"}, {"size": "96"}]}, {"dim": [{"size": "3"}, {"size": "3"}, {"size": "96"}, {"size": "96"}]}]}}, "use_cudnn_on_gpu": {"b": true}, "data_format": {"s": "TkhXQw=="}, "padding": {"s": "VkFMSUQ="}, "T": {"type": "DT_FLOAT"}, "strides": {"list": {"i": ["1", "2", "2", "1"]}}, "dilations": {"list": {"i": ["1", "1", "1", "1"]}}}}, {"name": "StatefulPartitionedCall/functional_1/inception_v3_1/batch_normalization_29_1/batchnorm/add_1", "op": "AddV2", "input": ["StatefulPartitionedCall/functional_1/inception_v3_1/batch_normalization_29_1/batchnorm/mul", "StatefulPartitionedCall/functional_1/inception_v3_1/batch_normalization_29_1/batchnorm/sub"], "attr": {"T": {"type": "DT_FLOAT"}}}, {"name": "StatefulPartitionedCall/functional_1/inception_v3_1/activation_29_1/Relu", "op": "Relu", "input": ["StatefulPartitionedCall/functional_1/inception_v3_1/batch_normalization_29_1/batchnorm/add_1"], "attr": {"T": {"type": "DT_FLOAT"}}}, {"name": "StatefulPartitionedCall/functional_1/inception_v3_1/mixed3_1/concat", "op": "ConcatV2", "input": ["StatefulPartitionedCall/functional_1/inception_v3_1/activation_26_1/Relu", "StatefulPartitionedCall/functional_1/inception_v3_1/activation_29_1/Relu", "StatefulPartitionedCall/functional_1/inception_v3_1/max_pooling2d_2_1/MaxPool2d", "StatefulPartitionedCall/functional_1/inception_v3_1/mixed3_1/concat/axis"], "attr": {"Tidx": {"type": "DT_INT32"}, "T": {"type": "DT_FLOAT"}, "N": {"i": "3"}}}, {"name": "StatefulPartitionedCall/functional_1/inception_v3_1/batch_normalization_30_1/batchnorm/mul", "op": "Conv2D", "input": ["StatefulPartitionedCall/functional_1/inception_v3_1/mixed3_1/concat", "StatefulPartitionedCall/functional_1/inception_v3_1/conv2d_30_1/convolution/merged_input"], "device": "/device:CPU:0", "attr": {"explicit_paddings": {"list": {}}, "_input_shapes": {"list": {"shape": [{"dim": [{"size": "-2"}, {"size": "-5"}, {"size": "-7"}, {"size": "768"}]}, {"dim": [{"size": "1"}, {"size": "1"}, {"size": "768"}, {"size": "192"}]}]}}, "use_cudnn_on_gpu": {"b": true}, "padding": {"s": "U0FNRQ=="}, "data_format": {"s": "TkhXQw=="}, "T": {"type": "DT_FLOAT"}, "strides": {"list": {"i": ["1", "1", "1", "1"]}}, "dilations": {"list": {"i": ["1", "1", "1", "1"]}}}}, {"name": "StatefulPartitionedCall/functional_1/inception_v3_1/batch_normalization_31_1/batchnorm/mul", "op": "Conv2D", "input": ["StatefulPartitionedCall/functional_1/inception_v3_1/mixed3_1/concat", "StatefulPartitionedCall/functional_1/inception_v3_1/conv2d_31_1/convolution/merged_input"], "device": "/device:CPU:0", "attr": {"explicit_paddings": {"list": {}}, "_input_shapes": {"list": {"shape": [{"dim": [{"size": "-2"}, {"size": "-5"}, {"size": "-7"}, {"size": "768"}]}, {"dim": [{"size": "1"}, {"size": "1"}, {"size": "768"}, {"size": "128"}]}]}}, "use_cudnn_on_gpu": {"b": true}, "data_format": {"s": "TkhXQw=="}, "padding": {"s": "U0FNRQ=="}, "T": {"type": "DT_FLOAT"}, "strides": {"list": {"i": ["1", "1", "1", "1"]}}, "dilations": {"list": {"i": ["1", "1", "1", "1"]}}}}, {"name": "StatefulPartitionedCall/functional_1/inception_v3_1/batch_normalization_34_1/batchnorm/mul", "op": "Conv2D", "input": ["StatefulPartitionedCall/functional_1/inception_v3_1/mixed3_1/concat", "StatefulPartitionedCall/functional_1/inception_v3_1/conv2d_34_1/convolution/merged_input"], "device": "/device:CPU:0", "attr": {"explicit_paddings": {"list": {}}, "use_cudnn_on_gpu": {"b": true}, "_input_shapes": {"list": {"shape": [{"dim": [{"size": "-2"}, {"size": "-5"}, {"size": "-7"}, {"size": "768"}]}, {"dim": [{"size": "1"}, {"size": "1"}, {"size": "768"}, {"size": "128"}]}]}}, "padding": {"s": "U0FNRQ=="}, "data_format": {"s": "TkhXQw=="}, "strides": {"list": {"i": ["1", "1", "1", "1"]}}, "T": {"type": "DT_FLOAT"}, "dilations": {"list": {"i": ["1", "1", "1", "1"]}}}}, {"name": "StatefulPartitionedCall/functional_1/inception_v3_1/average_pooling2d_3_1/AvgPool", "op": "AvgPool", "input": ["StatefulPartitionedCall/functional_1/inception_v3_1/mixed3_1/concat"], "attr": {"padding": {"s": "U0FNRQ=="}, "data_format": {"s": "TkhXQw=="}, "strides": {"list": {"i": ["1", "1", "1", "1"]}}, "T": {"type": "DT_FLOAT"}, "ksize": {"list": {"i": ["1", "3", "3", "1"]}}}}, {"name": "StatefulPartitionedCall/functional_1/inception_v3_1/batch_normalization_30_1/batchnorm/add_1", "op": "AddV2", "input": ["StatefulPartitionedCall/functional_1/inception_v3_1/batch_normalization_30_1/batchnorm/mul", "StatefulPartitionedCall/functional_1/inception_v3_1/batch_normalization_30_1/batchnorm/sub"], "attr": {"T": {"type": "DT_FLOAT"}}}, {"name": "StatefulPartitionedCall/functional_1/inception_v3_1/batch_normalization_31_1/batchnorm/add_1", "op": "AddV2", "input": ["StatefulPartitionedCall/functional_1/inception_v3_1/batch_normalization_31_1/batchnorm/mul", "StatefulPartitionedCall/functional_1/inception_v3_1/batch_normalization_31_1/batchnorm/sub"], "attr": {"T": {"type": "DT_FLOAT"}}}, {"name": "StatefulPartitionedCall/functional_1/inception_v3_1/batch_normalization_34_1/batchnorm/add_1", "op": "AddV2", "input": ["StatefulPartitionedCall/functional_1/inception_v3_1/batch_normalization_34_1/batchnorm/mul", "StatefulPartitionedCall/functional_1/inception_v3_1/batch_normalization_34_1/batchnorm/sub"], "attr": {"T": {"type": "DT_FLOAT"}}}, {"name": "StatefulPartitionedCall/functional_1/inception_v3_1/batch_normalization_39_1/batchnorm/mul", "op": "Conv2D", "input": ["StatefulPartitionedCall/functional_1/inception_v3_1/average_pooling2d_3_1/AvgPool", "StatefulPartitionedCall/functional_1/inception_v3_1/conv2d_39_1/convolution/merged_input"], "device": "/device:CPU:0", "attr": {"explicit_paddings": {"list": {}}, "use_cudnn_on_gpu": {"b": true}, "_input_shapes": {"list": {"shape": [{"dim": [{"size": "-2"}, {"size": "-5"}, {"size": "-7"}, {"size": "768"}]}, {"dim": [{"size": "1"}, {"size": "1"}, {"size": "768"}, {"size": "192"}]}]}}, "data_format": {"s": "TkhXQw=="}, "padding": {"s": "U0FNRQ=="}, "strides": {"list": {"i": ["1", "1", "1", "1"]}}, "T": {"type": "DT_FLOAT"}, "dilations": {"list": {"i": ["1", "1", "1", "1"]}}}}, {"name": "StatefulPartitionedCall/functional_1/inception_v3_1/activation_31_1/Relu", "op": "Relu", "input": ["StatefulPartitionedCall/functional_1/inception_v3_1/batch_normalization_31_1/batchnorm/add_1"], "attr": {"T": {"type": "DT_FLOAT"}}}, {"name": "StatefulPartitionedCall/functional_1/inception_v3_1/activation_34_1/Relu", "op": "Relu", "input": ["StatefulPartitionedCall/functional_1/inception_v3_1/batch_normalization_34_1/batchnorm/add_1"], "attr": {"T": {"type": "DT_FLOAT"}}}, {"name": "StatefulPartitionedCall/functional_1/inception_v3_1/batch_normalization_39_1/batchnorm/add_1", "op": "AddV2", "input": ["StatefulPartitionedCall/functional_1/inception_v3_1/batch_normalization_39_1/batchnorm/mul", "StatefulPartitionedCall/functional_1/inception_v3_1/batch_normalization_39_1/batchnorm/sub"], "attr": {"T": {"type": "DT_FLOAT"}}}, {"name": "StatefulPartitionedCall/functional_1/inception_v3_1/batch_normalization_32_1/batchnorm/mul", "op": "Conv2D", "input": ["StatefulPartitionedCall/functional_1/inception_v3_1/activation_31_1/Relu", "StatefulPartitionedCall/functional_1/inception_v3_1/conv2d_32_1/convolution/merged_input"], "device": "/device:CPU:0", "attr": {"explicit_paddings": {"list": {}}, "_input_shapes": {"list": {"shape": [{"dim": [{"size": "-2"}, {"size": "-5"}, {"size": "-7"}, {"size": "128"}]}, {"dim": [{"size": "1"}, {"size": "7"}, {"size": "128"}, {"size": "128"}]}]}}, "use_cudnn_on_gpu": {"b": true}, "padding": {"s": "U0FNRQ=="}, "data_format": {"s": "TkhXQw=="}, "strides": {"list": {"i": ["1", "1", "1", "1"]}}, "T": {"type": "DT_FLOAT"}, "dilations": {"list": {"i": ["1", "1", "1", "1"]}}}}, {"name": "StatefulPartitionedCall/functional_1/inception_v3_1/batch_normalization_35_1/batchnorm/mul", "op": "Conv2D", "input": ["StatefulPartitionedCall/functional_1/inception_v3_1/activation_34_1/Relu", "StatefulPartitionedCall/functional_1/inception_v3_1/conv2d_35_1/convolution/merged_input"], "device": "/device:CPU:0", "attr": {"explicit_paddings": {"list": {}}, "use_cudnn_on_gpu": {"b": true}, "_input_shapes": {"list": {"shape": [{"dim": [{"size": "-2"}, {"size": "-5"}, {"size": "-7"}, {"size": "128"}]}, {"dim": [{"size": "7"}, {"size": "1"}, {"size": "128"}, {"size": "128"}]}]}}, "padding": {"s": "U0FNRQ=="}, "data_format": {"s": "TkhXQw=="}, "T": {"type": "DT_FLOAT"}, "strides": {"list": {"i": ["1", "1", "1", "1"]}}, "dilations": {"list": {"i": ["1", "1", "1", "1"]}}}}, {"name": "StatefulPartitionedCall/functional_1/inception_v3_1/batch_normalization_32_1/batchnorm/add_1", "op": "AddV2", "input": ["StatefulPartitionedCall/functional_1/inception_v3_1/batch_normalization_32_1/batchnorm/mul", "StatefulPartitionedCall/functional_1/inception_v3_1/batch_normalization_32_1/batchnorm/sub"], "attr": {"T": {"type": "DT_FLOAT"}}}, {"name": "StatefulPartitionedCall/functional_1/inception_v3_1/batch_normalization_35_1/batchnorm/add_1", "op": "AddV2", "input": ["StatefulPartitionedCall/functional_1/inception_v3_1/batch_normalization_35_1/batchnorm/mul", "StatefulPartitionedCall/functional_1/inception_v3_1/batch_normalization_35_1/batchnorm/sub"], "attr": {"T": {"type": "DT_FLOAT"}}}, {"name": "StatefulPartitionedCall/functional_1/inception_v3_1/activation_32_1/Relu", "op": "Relu", "input": ["StatefulPartitionedCall/functional_1/inception_v3_1/batch_normalization_32_1/batchnorm/add_1"], "attr": {"T": {"type": "DT_FLOAT"}}}, {"name": "StatefulPartitionedCall/functional_1/inception_v3_1/activation_35_1/Relu", "op": "Relu", "input": ["StatefulPartitionedCall/functional_1/inception_v3_1/batch_normalization_35_1/batchnorm/add_1"], "attr": {"T": {"type": "DT_FLOAT"}}}, {"name": "StatefulPartitionedCall/functional_1/inception_v3_1/batch_normalization_33_1/batchnorm/mul", "op": "Conv2D", "input": ["StatefulPartitionedCall/functional_1/inception_v3_1/activation_32_1/Relu", "StatefulPartitionedCall/functional_1/inception_v3_1/conv2d_33_1/convolution/merged_input"], "device": "/device:CPU:0", "attr": {"explicit_paddings": {"list": {}}, "_input_shapes": {"list": {"shape": [{"dim": [{"size": "-2"}, {"size": "-5"}, {"size": "-7"}, {"size": "128"}]}, {"dim": [{"size": "7"}, {"size": "1"}, {"size": "128"}, {"size": "192"}]}]}}, "use_cudnn_on_gpu": {"b": true}, "padding": {"s": "U0FNRQ=="}, "data_format": {"s": "TkhXQw=="}, "T": {"type": "DT_FLOAT"}, "strides": {"list": {"i": ["1", "1", "1", "1"]}}, "dilations": {"list": {"i": ["1", "1", "1", "1"]}}}}, {"name": "StatefulPartitionedCall/functional_1/inception_v3_1/batch_normalization_36_1/batchnorm/mul", "op": "Conv2D", "input": ["StatefulPartitionedCall/functional_1/inception_v3_1/activation_35_1/Relu", "StatefulPartitionedCall/functional_1/inception_v3_1/conv2d_36_1/convolution/merged_input"], "device": "/device:CPU:0", "attr": {"explicit_paddings": {"list": {}}, "use_cudnn_on_gpu": {"b": true}, "_input_shapes": {"list": {"shape": [{"dim": [{"size": "-2"}, {"size": "-5"}, {"size": "-7"}, {"size": "128"}]}, {"dim": [{"size": "1"}, {"size": "7"}, {"size": "128"}, {"size": "128"}]}]}}, "padding": {"s": "U0FNRQ=="}, "data_format": {"s": "TkhXQw=="}, "T": {"type": "DT_FLOAT"}, "strides": {"list": {"i": ["1", "1", "1", "1"]}}, "dilations": {"list": {"i": ["1", "1", "1", "1"]}}}}, {"name": "StatefulPartitionedCall/functional_1/inception_v3_1/batch_normalization_33_1/batchnorm/add_1", "op": "AddV2", "input": ["StatefulPartitionedCall/functional_1/inception_v3_1/batch_normalization_33_1/batchnorm/mul", "StatefulPartitionedCall/functional_1/inception_v3_1/batch_normalization_33_1/batchnorm/sub"], "attr": {"T": {"type": "DT_FLOAT"}}}, {"name": "StatefulPartitionedCall/functional_1/inception_v3_1/batch_normalization_36_1/batchnorm/add_1", "op": "AddV2", "input": ["StatefulPartitionedCall/functional_1/inception_v3_1/batch_normalization_36_1/batchnorm/mul", "StatefulPartitionedCall/functional_1/inception_v3_1/batch_normalization_36_1/batchnorm/sub"], "attr": {"T": {"type": "DT_FLOAT"}}}, {"name": "StatefulPartitionedCall/functional_1/inception_v3_1/activation_36_1/Relu", "op": "Relu", "input": ["StatefulPartitionedCall/functional_1/inception_v3_1/batch_normalization_36_1/batchnorm/add_1"], "attr": {"T": {"type": "DT_FLOAT"}}}, {"name": "StatefulPartitionedCall/functional_1/inception_v3_1/batch_normalization_37_1/batchnorm/mul", "op": "Conv2D", "input": ["StatefulPartitionedCall/functional_1/inception_v3_1/activation_36_1/Relu", "StatefulPartitionedCall/functional_1/inception_v3_1/conv2d_37_1/convolution/merged_input"], "device": "/device:CPU:0", "attr": {"explicit_paddings": {"list": {}}, "_input_shapes": {"list": {"shape": [{"dim": [{"size": "-2"}, {"size": "-5"}, {"size": "-7"}, {"size": "128"}]}, {"dim": [{"size": "7"}, {"size": "1"}, {"size": "128"}, {"size": "128"}]}]}}, "use_cudnn_on_gpu": {"b": true}, "padding": {"s": "U0FNRQ=="}, "data_format": {"s": "TkhXQw=="}, "T": {"type": "DT_FLOAT"}, "strides": {"list": {"i": ["1", "1", "1", "1"]}}, "dilations": {"list": {"i": ["1", "1", "1", "1"]}}}}, {"name": "StatefulPartitionedCall/functional_1/inception_v3_1/batch_normalization_37_1/batchnorm/add_1", "op": "AddV2", "input": ["StatefulPartitionedCall/functional_1/inception_v3_1/batch_normalization_37_1/batchnorm/mul", "StatefulPartitionedCall/functional_1/inception_v3_1/batch_normalization_37_1/batchnorm/sub"], "attr": {"T": {"type": "DT_FLOAT"}}}, {"name": "StatefulPartitionedCall/functional_1/inception_v3_1/activation_37_1/Relu", "op": "Relu", "input": ["StatefulPartitionedCall/functional_1/inception_v3_1/batch_normalization_37_1/batchnorm/add_1"], "attr": {"T": {"type": "DT_FLOAT"}}}, {"name": "StatefulPartitionedCall/functional_1/inception_v3_1/batch_normalization_38_1/batchnorm/mul", "op": "Conv2D", "input": ["StatefulPartitionedCall/functional_1/inception_v3_1/activation_37_1/Relu", "StatefulPartitionedCall/functional_1/inception_v3_1/conv2d_38_1/convolution/merged_input"], "device": "/device:CPU:0", "attr": {"explicit_paddings": {"list": {}}, "_input_shapes": {"list": {"shape": [{"dim": [{"size": "-2"}, {"size": "-5"}, {"size": "-7"}, {"size": "128"}]}, {"dim": [{"size": "1"}, {"size": "7"}, {"size": "128"}, {"size": "192"}]}]}}, "use_cudnn_on_gpu": {"b": true}, "data_format": {"s": "TkhXQw=="}, "padding": {"s": "U0FNRQ=="}, "strides": {"list": {"i": ["1", "1", "1", "1"]}}, "T": {"type": "DT_FLOAT"}, "dilations": {"list": {"i": ["1", "1", "1", "1"]}}}}, {"name": "StatefulPartitionedCall/functional_1/inception_v3_1/batch_normalization_38_1/batchnorm/add_1", "op": "AddV2", "input": ["StatefulPartitionedCall/functional_1/inception_v3_1/batch_normalization_38_1/batchnorm/mul", "StatefulPartitionedCall/functional_1/inception_v3_1/batch_normalization_38_1/batchnorm/sub"], "attr": {"T": {"type": "DT_FLOAT"}}}, {"name": "StatefulPartitionedCall/functional_1/inception_v3_1/mixed4_1/concat", "op": "ConcatV2", "input": ["StatefulPartitionedCall/functional_1/inception_v3_1/batch_normalization_30_1/batchnorm/add_1", "StatefulPartitionedCall/functional_1/inception_v3_1/batch_normalization_33_1/batchnorm/add_1", "StatefulPartitionedCall/functional_1/inception_v3_1/batch_normalization_38_1/batchnorm/add_1", "StatefulPartitionedCall/functional_1/inception_v3_1/batch_normalization_39_1/batchnorm/add_1", "StatefulPartitionedCall/functional_1/inception_v3_1/mixed4_1/concat/axis"], "attr": {"Tidx": {"type": "DT_INT32"}, "T": {"type": "DT_FLOAT"}, "N": {"i": "4"}}}, {"name": "StatefulPartitionedCall/functional_1/inception_v3_1/activation_30_1/Relu", "op": "Relu", "input": ["StatefulPartitionedCall/functional_1/inception_v3_1/mixed4_1/concat"], "attr": {"T": {"type": "DT_FLOAT"}}}, {"name": "StatefulPartitionedCall/functional_1/inception_v3_1/batch_normalization_40_1/batchnorm/mul", "op": "Conv2D", "input": ["StatefulPartitionedCall/functional_1/inception_v3_1/activation_30_1/Relu", "StatefulPartitionedCall/functional_1/inception_v3_1/conv2d_40_1/convolution/merged_input"], "device": "/device:CPU:0", "attr": {"explicit_paddings": {"list": {}}, "_input_shapes": {"list": {"shape": [{"dim": [{"size": "-2"}, {"size": "-5"}, {"size": "-7"}, {"size": "768"}]}, {"dim": [{"size": "1"}, {"size": "1"}, {"size": "768"}, {"size": "192"}]}]}}, "use_cudnn_on_gpu": {"b": true}, "data_format": {"s": "TkhXQw=="}, "padding": {"s": "U0FNRQ=="}, "T": {"type": "DT_FLOAT"}, "strides": {"list": {"i": ["1", "1", "1", "1"]}}, "dilations": {"list": {"i": ["1", "1", "1", "1"]}}}}, {"name": "StatefulPartitionedCall/functional_1/inception_v3_1/batch_normalization_41_1/batchnorm/mul", "op": "Conv2D", "input": ["StatefulPartitionedCall/functional_1/inception_v3_1/activation_30_1/Relu", "StatefulPartitionedCall/functional_1/inception_v3_1/conv2d_41_1/convolution/merged_input"], "device": "/device:CPU:0", "attr": {"explicit_paddings": {"list": {}}, "use_cudnn_on_gpu": {"b": true}, "_input_shapes": {"list": {"shape": [{"dim": [{"size": "-2"}, {"size": "-5"}, {"size": "-7"}, {"size": "768"}]}, {"dim": [{"size": "1"}, {"size": "1"}, {"size": "768"}, {"size": "160"}]}]}}, "padding": {"s": "U0FNRQ=="}, "data_format": {"s": "TkhXQw=="}, "strides": {"list": {"i": ["1", "1", "1", "1"]}}, "T": {"type": "DT_FLOAT"}, "dilations": {"list": {"i": ["1", "1", "1", "1"]}}}}, {"name": "StatefulPartitionedCall/functional_1/inception_v3_1/batch_normalization_44_1/batchnorm/mul", "op": "Conv2D", "input": ["StatefulPartitionedCall/functional_1/inception_v3_1/activation_30_1/Relu", "StatefulPartitionedCall/functional_1/inception_v3_1/conv2d_44_1/convolution/merged_input"], "device": "/device:CPU:0", "attr": {"explicit_paddings": {"list": {}}, "_input_shapes": {"list": {"shape": [{"dim": [{"size": "-2"}, {"size": "-5"}, {"size": "-7"}, {"size": "768"}]}, {"dim": [{"size": "1"}, {"size": "1"}, {"size": "768"}, {"size": "160"}]}]}}, "use_cudnn_on_gpu": {"b": true}, "data_format": {"s": "TkhXQw=="}, "padding": {"s": "U0FNRQ=="}, "T": {"type": "DT_FLOAT"}, "strides": {"list": {"i": ["1", "1", "1", "1"]}}, "dilations": {"list": {"i": ["1", "1", "1", "1"]}}}}, {"name": "StatefulPartitionedCall/functional_1/inception_v3_1/average_pooling2d_4_1/AvgPool", "op": "AvgPool", "input": ["StatefulPartitionedCall/functional_1/inception_v3_1/activation_30_1/Relu"], "attr": {"padding": {"s": "U0FNRQ=="}, "data_format": {"s": "TkhXQw=="}, "T": {"type": "DT_FLOAT"}, "strides": {"list": {"i": ["1", "1", "1", "1"]}}, "ksize": {"list": {"i": ["1", "3", "3", "1"]}}}}, {"name": "StatefulPartitionedCall/functional_1/inception_v3_1/batch_normalization_40_1/batchnorm/add_1", "op": "AddV2", "input": ["StatefulPartitionedCall/functional_1/inception_v3_1/batch_normalization_40_1/batchnorm/mul", "StatefulPartitionedCall/functional_1/inception_v3_1/batch_normalization_40_1/batchnorm/sub"], "attr": {"T": {"type": "DT_FLOAT"}}}, {"name": "StatefulPartitionedCall/functional_1/inception_v3_1/batch_normalization_41_1/batchnorm/add_1", "op": "AddV2", "input": ["StatefulPartitionedCall/functional_1/inception_v3_1/batch_normalization_41_1/batchnorm/mul", "StatefulPartitionedCall/functional_1/inception_v3_1/batch_normalization_41_1/batchnorm/sub"], "attr": {"T": {"type": "DT_FLOAT"}}}, {"name": "StatefulPartitionedCall/functional_1/inception_v3_1/batch_normalization_44_1/batchnorm/add_1", "op": "AddV2", "input": ["StatefulPartitionedCall/functional_1/inception_v3_1/batch_normalization_44_1/batchnorm/mul", "StatefulPartitionedCall/functional_1/inception_v3_1/batch_normalization_44_1/batchnorm/sub"], "attr": {"T": {"type": "DT_FLOAT"}}}, {"name": "StatefulPartitionedCall/functional_1/inception_v3_1/batch_normalization_49_1/batchnorm/mul", "op": "Conv2D", "input": ["StatefulPartitionedCall/functional_1/inception_v3_1/average_pooling2d_4_1/AvgPool", "StatefulPartitionedCall/functional_1/inception_v3_1/conv2d_49_1/convolution/merged_input"], "device": "/device:CPU:0", "attr": {"explicit_paddings": {"list": {}}, "use_cudnn_on_gpu": {"b": true}, "_input_shapes": {"list": {"shape": [{"dim": [{"size": "-2"}, {"size": "-5"}, {"size": "-7"}, {"size": "768"}]}, {"dim": [{"size": "1"}, {"size": "1"}, {"size": "768"}, {"size": "192"}]}]}}, "data_format": {"s": "TkhXQw=="}, "padding": {"s": "U0FNRQ=="}, "T": {"type": "DT_FLOAT"}, "strides": {"list": {"i": ["1", "1", "1", "1"]}}, "dilations": {"list": {"i": ["1", "1", "1", "1"]}}}}, {"name": "StatefulPartitionedCall/functional_1/inception_v3_1/activation_41_1/Relu", "op": "Relu", "input": ["StatefulPartitionedCall/functional_1/inception_v3_1/batch_normalization_41_1/batchnorm/add_1"], "attr": {"T": {"type": "DT_FLOAT"}}}, {"name": "StatefulPartitionedCall/functional_1/inception_v3_1/activation_44_1/Relu", "op": "Relu", "input": ["StatefulPartitionedCall/functional_1/inception_v3_1/batch_normalization_44_1/batchnorm/add_1"], "attr": {"T": {"type": "DT_FLOAT"}}}, {"name": "StatefulPartitionedCall/functional_1/inception_v3_1/batch_normalization_49_1/batchnorm/add_1", "op": "AddV2", "input": ["StatefulPartitionedCall/functional_1/inception_v3_1/batch_normalization_49_1/batchnorm/mul", "StatefulPartitionedCall/functional_1/inception_v3_1/batch_normalization_49_1/batchnorm/sub"], "attr": {"T": {"type": "DT_FLOAT"}}}, {"name": "StatefulPartitionedCall/functional_1/inception_v3_1/batch_normalization_42_1/batchnorm/mul", "op": "Conv2D", "input": ["StatefulPartitionedCall/functional_1/inception_v3_1/activation_41_1/Relu", "StatefulPartitionedCall/functional_1/inception_v3_1/conv2d_42_1/convolution/merged_input"], "device": "/device:CPU:0", "attr": {"explicit_paddings": {"list": {}}, "use_cudnn_on_gpu": {"b": true}, "_input_shapes": {"list": {"shape": [{"dim": [{"size": "-2"}, {"size": "-5"}, {"size": "-7"}, {"size": "160"}]}, {"dim": [{"size": "1"}, {"size": "7"}, {"size": "160"}, {"size": "160"}]}]}}, "padding": {"s": "U0FNRQ=="}, "data_format": {"s": "TkhXQw=="}, "strides": {"list": {"i": ["1", "1", "1", "1"]}}, "T": {"type": "DT_FLOAT"}, "dilations": {"list": {"i": ["1", "1", "1", "1"]}}}}, {"name": "StatefulPartitionedCall/functional_1/inception_v3_1/batch_normalization_45_1/batchnorm/mul", "op": "Conv2D", "input": ["StatefulPartitionedCall/functional_1/inception_v3_1/activation_44_1/Relu", "StatefulPartitionedCall/functional_1/inception_v3_1/conv2d_45_1/convolution/merged_input"], "device": "/device:CPU:0", "attr": {"explicit_paddings": {"list": {}}, "_input_shapes": {"list": {"shape": [{"dim": [{"size": "-2"}, {"size": "-5"}, {"size": "-7"}, {"size": "160"}]}, {"dim": [{"size": "7"}, {"size": "1"}, {"size": "160"}, {"size": "160"}]}]}}, "use_cudnn_on_gpu": {"b": true}, "data_format": {"s": "TkhXQw=="}, "padding": {"s": "U0FNRQ=="}, "T": {"type": "DT_FLOAT"}, "strides": {"list": {"i": ["1", "1", "1", "1"]}}, "dilations": {"list": {"i": ["1", "1", "1", "1"]}}}}, {"name": "StatefulPartitionedCall/functional_1/inception_v3_1/batch_normalization_42_1/batchnorm/add_1", "op": "AddV2", "input": ["StatefulPartitionedCall/functional_1/inception_v3_1/batch_normalization_42_1/batchnorm/mul", "StatefulPartitionedCall/functional_1/inception_v3_1/batch_normalization_42_1/batchnorm/sub"], "attr": {"T": {"type": "DT_FLOAT"}}}, {"name": "StatefulPartitionedCall/functional_1/inception_v3_1/batch_normalization_45_1/batchnorm/add_1", "op": "AddV2", "input": ["StatefulPartitionedCall/functional_1/inception_v3_1/batch_normalization_45_1/batchnorm/mul", "StatefulPartitionedCall/functional_1/inception_v3_1/batch_normalization_45_1/batchnorm/sub"], "attr": {"T": {"type": "DT_FLOAT"}}}, {"name": "StatefulPartitionedCall/functional_1/inception_v3_1/activation_42_1/Relu", "op": "Relu", "input": ["StatefulPartitionedCall/functional_1/inception_v3_1/batch_normalization_42_1/batchnorm/add_1"], "attr": {"T": {"type": "DT_FLOAT"}}}, {"name": "StatefulPartitionedCall/functional_1/inception_v3_1/activation_45_1/Relu", "op": "Relu", "input": ["StatefulPartitionedCall/functional_1/inception_v3_1/batch_normalization_45_1/batchnorm/add_1"], "attr": {"T": {"type": "DT_FLOAT"}}}, {"name": "StatefulPartitionedCall/functional_1/inception_v3_1/batch_normalization_43_1/batchnorm/mul", "op": "Conv2D", "input": ["StatefulPartitionedCall/functional_1/inception_v3_1/activation_42_1/Relu", "StatefulPartitionedCall/functional_1/inception_v3_1/conv2d_43_1/convolution/merged_input"], "device": "/device:CPU:0", "attr": {"explicit_paddings": {"list": {}}, "_input_shapes": {"list": {"shape": [{"dim": [{"size": "-2"}, {"size": "-5"}, {"size": "-7"}, {"size": "160"}]}, {"dim": [{"size": "7"}, {"size": "1"}, {"size": "160"}, {"size": "192"}]}]}}, "use_cudnn_on_gpu": {"b": true}, "data_format": {"s": "TkhXQw=="}, "padding": {"s": "U0FNRQ=="}, "T": {"type": "DT_FLOAT"}, "strides": {"list": {"i": ["1", "1", "1", "1"]}}, "dilations": {"list": {"i": ["1", "1", "1", "1"]}}}}, {"name": "StatefulPartitionedCall/functional_1/inception_v3_1/batch_normalization_46_1/batchnorm/mul", "op": "Conv2D", "input": ["StatefulPartitionedCall/functional_1/inception_v3_1/activation_45_1/Relu", "StatefulPartitionedCall/functional_1/inception_v3_1/conv2d_46_1/convolution/merged_input"], "device": "/device:CPU:0", "attr": {"explicit_paddings": {"list": {}}, "use_cudnn_on_gpu": {"b": true}, "_input_shapes": {"list": {"shape": [{"dim": [{"size": "-2"}, {"size": "-5"}, {"size": "-7"}, {"size": "160"}]}, {"dim": [{"size": "1"}, {"size": "7"}, {"size": "160"}, {"size": "160"}]}]}}, "padding": {"s": "U0FNRQ=="}, "data_format": {"s": "TkhXQw=="}, "T": {"type": "DT_FLOAT"}, "strides": {"list": {"i": ["1", "1", "1", "1"]}}, "dilations": {"list": {"i": ["1", "1", "1", "1"]}}}}, {"name": "StatefulPartitionedCall/functional_1/inception_v3_1/batch_normalization_43_1/batchnorm/add_1", "op": "AddV2", "input": ["StatefulPartitionedCall/functional_1/inception_v3_1/batch_normalization_43_1/batchnorm/mul", "StatefulPartitionedCall/functional_1/inception_v3_1/batch_normalization_43_1/batchnorm/sub"], "attr": {"T": {"type": "DT_FLOAT"}}}, {"name": "StatefulPartitionedCall/functional_1/inception_v3_1/batch_normalization_46_1/batchnorm/add_1", "op": "AddV2", "input": ["StatefulPartitionedCall/functional_1/inception_v3_1/batch_normalization_46_1/batchnorm/mul", "StatefulPartitionedCall/functional_1/inception_v3_1/batch_normalization_46_1/batchnorm/sub"], "attr": {"T": {"type": "DT_FLOAT"}}}, {"name": "StatefulPartitionedCall/functional_1/inception_v3_1/activation_46_1/Relu", "op": "Relu", "input": ["StatefulPartitionedCall/functional_1/inception_v3_1/batch_normalization_46_1/batchnorm/add_1"], "attr": {"T": {"type": "DT_FLOAT"}}}, {"name": "StatefulPartitionedCall/functional_1/inception_v3_1/batch_normalization_47_1/batchnorm/mul", "op": "Conv2D", "input": ["StatefulPartitionedCall/functional_1/inception_v3_1/activation_46_1/Relu", "StatefulPartitionedCall/functional_1/inception_v3_1/conv2d_47_1/convolution/merged_input"], "device": "/device:CPU:0", "attr": {"explicit_paddings": {"list": {}}, "_input_shapes": {"list": {"shape": [{"dim": [{"size": "-2"}, {"size": "-5"}, {"size": "-7"}, {"size": "160"}]}, {"dim": [{"size": "7"}, {"size": "1"}, {"size": "160"}, {"size": "160"}]}]}}, "use_cudnn_on_gpu": {"b": true}, "data_format": {"s": "TkhXQw=="}, "padding": {"s": "U0FNRQ=="}, "T": {"type": "DT_FLOAT"}, "strides": {"list": {"i": ["1", "1", "1", "1"]}}, "dilations": {"list": {"i": ["1", "1", "1", "1"]}}}}, {"name": "StatefulPartitionedCall/functional_1/inception_v3_1/batch_normalization_47_1/batchnorm/add_1", "op": "AddV2", "input": ["StatefulPartitionedCall/functional_1/inception_v3_1/batch_normalization_47_1/batchnorm/mul", "StatefulPartitionedCall/functional_1/inception_v3_1/batch_normalization_47_1/batchnorm/sub"], "attr": {"T": {"type": "DT_FLOAT"}}}, {"name": "StatefulPartitionedCall/functional_1/inception_v3_1/activation_47_1/Relu", "op": "Relu", "input": ["StatefulPartitionedCall/functional_1/inception_v3_1/batch_normalization_47_1/batchnorm/add_1"], "attr": {"T": {"type": "DT_FLOAT"}}}, {"name": "StatefulPartitionedCall/functional_1/inception_v3_1/batch_normalization_48_1/batchnorm/mul", "op": "Conv2D", "input": ["StatefulPartitionedCall/functional_1/inception_v3_1/activation_47_1/Relu", "StatefulPartitionedCall/functional_1/inception_v3_1/conv2d_48_1/convolution/merged_input"], "device": "/device:CPU:0", "attr": {"explicit_paddings": {"list": {}}, "use_cudnn_on_gpu": {"b": true}, "_input_shapes": {"list": {"shape": [{"dim": [{"size": "-2"}, {"size": "-5"}, {"size": "-7"}, {"size": "160"}]}, {"dim": [{"size": "1"}, {"size": "7"}, {"size": "160"}, {"size": "192"}]}]}}, "data_format": {"s": "TkhXQw=="}, "padding": {"s": "U0FNRQ=="}, "strides": {"list": {"i": ["1", "1", "1", "1"]}}, "T": {"type": "DT_FLOAT"}, "dilations": {"list": {"i": ["1", "1", "1", "1"]}}}}, {"name": "StatefulPartitionedCall/functional_1/inception_v3_1/batch_normalization_48_1/batchnorm/add_1", "op": "AddV2", "input": ["StatefulPartitionedCall/functional_1/inception_v3_1/batch_normalization_48_1/batchnorm/mul", "StatefulPartitionedCall/functional_1/inception_v3_1/batch_normalization_48_1/batchnorm/sub"], "attr": {"T": {"type": "DT_FLOAT"}}}, {"name": "StatefulPartitionedCall/functional_1/inception_v3_1/mixed5_1/concat", "op": "ConcatV2", "input": ["StatefulPartitionedCall/functional_1/inception_v3_1/batch_normalization_40_1/batchnorm/add_1", "StatefulPartitionedCall/functional_1/inception_v3_1/batch_normalization_43_1/batchnorm/add_1", "StatefulPartitionedCall/functional_1/inception_v3_1/batch_normalization_48_1/batchnorm/add_1", "StatefulPartitionedCall/functional_1/inception_v3_1/batch_normalization_49_1/batchnorm/add_1", "StatefulPartitionedCall/functional_1/inception_v3_1/mixed5_1/concat/axis"], "attr": {"Tidx": {"type": "DT_INT32"}, "T": {"type": "DT_FLOAT"}, "N": {"i": "4"}}}, {"name": "StatefulPartitionedCall/functional_1/inception_v3_1/activation_40_1/Relu", "op": "Relu", "input": ["StatefulPartitionedCall/functional_1/inception_v3_1/mixed5_1/concat"], "attr": {"T": {"type": "DT_FLOAT"}}}, {"name": "StatefulPartitionedCall/functional_1/inception_v3_1/batch_normalization_50_1/batchnorm/mul", "op": "Conv2D", "input": ["StatefulPartitionedCall/functional_1/inception_v3_1/activation_40_1/Relu", "StatefulPartitionedCall/functional_1/inception_v3_1/conv2d_50_1/convolution/merged_input"], "device": "/device:CPU:0", "attr": {"explicit_paddings": {"list": {}}, "_input_shapes": {"list": {"shape": [{"dim": [{"size": "-2"}, {"size": "-5"}, {"size": "-7"}, {"size": "768"}]}, {"dim": [{"size": "1"}, {"size": "1"}, {"size": "768"}, {"size": "192"}]}]}}, "use_cudnn_on_gpu": {"b": true}, "padding": {"s": "U0FNRQ=="}, "data_format": {"s": "TkhXQw=="}, "strides": {"list": {"i": ["1", "1", "1", "1"]}}, "T": {"type": "DT_FLOAT"}, "dilations": {"list": {"i": ["1", "1", "1", "1"]}}}}, {"name": "StatefulPartitionedCall/functional_1/inception_v3_1/batch_normalization_51_1/batchnorm/mul", "op": "Conv2D", "input": ["StatefulPartitionedCall/functional_1/inception_v3_1/activation_40_1/Relu", "StatefulPartitionedCall/functional_1/inception_v3_1/conv2d_51_1/convolution/merged_input"], "device": "/device:CPU:0", "attr": {"explicit_paddings": {"list": {}}, "_input_shapes": {"list": {"shape": [{"dim": [{"size": "-2"}, {"size": "-5"}, {"size": "-7"}, {"size": "768"}]}, {"dim": [{"size": "1"}, {"size": "1"}, {"size": "768"}, {"size": "160"}]}]}}, "use_cudnn_on_gpu": {"b": true}, "padding": {"s": "U0FNRQ=="}, "data_format": {"s": "TkhXQw=="}, "T": {"type": "DT_FLOAT"}, "strides": {"list": {"i": ["1", "1", "1", "1"]}}, "dilations": {"list": {"i": ["1", "1", "1", "1"]}}}}, {"name": "StatefulPartitionedCall/functional_1/inception_v3_1/batch_normalization_54_1/batchnorm/mul", "op": "Conv2D", "input": ["StatefulPartitionedCall/functional_1/inception_v3_1/activation_40_1/Relu", "StatefulPartitionedCall/functional_1/inception_v3_1/conv2d_54_1/convolution/merged_input"], "device": "/device:CPU:0", "attr": {"explicit_paddings": {"list": {}}, "_input_shapes": {"list": {"shape": [{"dim": [{"size": "-2"}, {"size": "-5"}, {"size": "-7"}, {"size": "768"}]}, {"dim": [{"size": "1"}, {"size": "1"}, {"size": "768"}, {"size": "160"}]}]}}, "use_cudnn_on_gpu": {"b": true}, "data_format": {"s": "TkhXQw=="}, "padding": {"s": "U0FNRQ=="}, "T": {"type": "DT_FLOAT"}, "strides": {"list": {"i": ["1", "1", "1", "1"]}}, "dilations": {"list": {"i": ["1", "1", "1", "1"]}}}}, {"name": "StatefulPartitionedCall/functional_1/inception_v3_1/average_pooling2d_5_1/AvgPool", "op": "AvgPool", "input": ["StatefulPartitionedCall/functional_1/inception_v3_1/activation_40_1/Relu"], "attr": {"data_format": {"s": "TkhXQw=="}, "padding": {"s": "U0FNRQ=="}, "T": {"type": "DT_FLOAT"}, "strides": {"list": {"i": ["1", "1", "1", "1"]}}, "ksize": {"list": {"i": ["1", "3", "3", "1"]}}}}, {"name": "StatefulPartitionedCall/functional_1/inception_v3_1/batch_normalization_50_1/batchnorm/add_1", "op": "AddV2", "input": ["StatefulPartitionedCall/functional_1/inception_v3_1/batch_normalization_50_1/batchnorm/mul", "StatefulPartitionedCall/functional_1/inception_v3_1/batch_normalization_50_1/batchnorm/sub"], "attr": {"T": {"type": "DT_FLOAT"}}}, {"name": "StatefulPartitionedCall/functional_1/inception_v3_1/batch_normalization_51_1/batchnorm/add_1", "op": "AddV2", "input": ["StatefulPartitionedCall/functional_1/inception_v3_1/batch_normalization_51_1/batchnorm/mul", "StatefulPartitionedCall/functional_1/inception_v3_1/batch_normalization_51_1/batchnorm/sub"], "attr": {"T": {"type": "DT_FLOAT"}}}, {"name": "StatefulPartitionedCall/functional_1/inception_v3_1/batch_normalization_54_1/batchnorm/add_1", "op": "AddV2", "input": ["StatefulPartitionedCall/functional_1/inception_v3_1/batch_normalization_54_1/batchnorm/mul", "StatefulPartitionedCall/functional_1/inception_v3_1/batch_normalization_54_1/batchnorm/sub"], "attr": {"T": {"type": "DT_FLOAT"}}}, {"name": "StatefulPartitionedCall/functional_1/inception_v3_1/batch_normalization_59_1/batchnorm/mul", "op": "Conv2D", "input": ["StatefulPartitionedCall/functional_1/inception_v3_1/average_pooling2d_5_1/AvgPool", "StatefulPartitionedCall/functional_1/inception_v3_1/conv2d_59_1/convolution/merged_input"], "device": "/device:CPU:0", "attr": {"explicit_paddings": {"list": {}}, "use_cudnn_on_gpu": {"b": true}, "_input_shapes": {"list": {"shape": [{"dim": [{"size": "-2"}, {"size": "-5"}, {"size": "-7"}, {"size": "768"}]}, {"dim": [{"size": "1"}, {"size": "1"}, {"size": "768"}, {"size": "192"}]}]}}, "padding": {"s": "U0FNRQ=="}, "data_format": {"s": "TkhXQw=="}, "strides": {"list": {"i": ["1", "1", "1", "1"]}}, "T": {"type": "DT_FLOAT"}, "dilations": {"list": {"i": ["1", "1", "1", "1"]}}}}, {"name": "StatefulPartitionedCall/functional_1/inception_v3_1/activation_51_1/Relu", "op": "Relu", "input": ["StatefulPartitionedCall/functional_1/inception_v3_1/batch_normalization_51_1/batchnorm/add_1"], "attr": {"T": {"type": "DT_FLOAT"}}}, {"name": "StatefulPartitionedCall/functional_1/inception_v3_1/activation_54_1/Relu", "op": "Relu", "input": ["StatefulPartitionedCall/functional_1/inception_v3_1/batch_normalization_54_1/batchnorm/add_1"], "attr": {"T": {"type": "DT_FLOAT"}}}, {"name": "StatefulPartitionedCall/functional_1/inception_v3_1/batch_normalization_59_1/batchnorm/add_1", "op": "AddV2", "input": ["StatefulPartitionedCall/functional_1/inception_v3_1/batch_normalization_59_1/batchnorm/mul", "StatefulPartitionedCall/functional_1/inception_v3_1/batch_normalization_59_1/batchnorm/sub"], "attr": {"T": {"type": "DT_FLOAT"}}}, {"name": "StatefulPartitionedCall/functional_1/inception_v3_1/batch_normalization_52_1/batchnorm/mul", "op": "Conv2D", "input": ["StatefulPartitionedCall/functional_1/inception_v3_1/activation_51_1/Relu", "StatefulPartitionedCall/functional_1/inception_v3_1/conv2d_52_1/convolution/merged_input"], "device": "/device:CPU:0", "attr": {"explicit_paddings": {"list": {}}, "_input_shapes": {"list": {"shape": [{"dim": [{"size": "-2"}, {"size": "-5"}, {"size": "-7"}, {"size": "160"}]}, {"dim": [{"size": "1"}, {"size": "7"}, {"size": "160"}, {"size": "160"}]}]}}, "use_cudnn_on_gpu": {"b": true}, "data_format": {"s": "TkhXQw=="}, "padding": {"s": "U0FNRQ=="}, "T": {"type": "DT_FLOAT"}, "strides": {"list": {"i": ["1", "1", "1", "1"]}}, "dilations": {"list": {"i": ["1", "1", "1", "1"]}}}}, {"name": "StatefulPartitionedCall/functional_1/inception_v3_1/batch_normalization_55_1/batchnorm/mul", "op": "Conv2D", "input": ["StatefulPartitionedCall/functional_1/inception_v3_1/activation_54_1/Relu", "StatefulPartitionedCall/functional_1/inception_v3_1/conv2d_55_1/convolution/merged_input"], "device": "/device:CPU:0", "attr": {"explicit_paddings": {"list": {}}, "_input_shapes": {"list": {"shape": [{"dim": [{"size": "-2"}, {"size": "-5"}, {"size": "-7"}, {"size": "160"}]}, {"dim": [{"size": "7"}, {"size": "1"}, {"size": "160"}, {"size": "160"}]}]}}, "use_cudnn_on_gpu": {"b": true}, "data_format": {"s": "TkhXQw=="}, "padding": {"s": "U0FNRQ=="}, "T": {"type": "DT_FLOAT"}, "strides": {"list": {"i": ["1", "1", "1", "1"]}}, "dilations": {"list": {"i": ["1", "1", "1", "1"]}}}}, {"name": "StatefulPartitionedCall/functional_1/inception_v3_1/batch_normalization_52_1/batchnorm/add_1", "op": "AddV2", "input": ["StatefulPartitionedCall/functional_1/inception_v3_1/batch_normalization_52_1/batchnorm/mul", "StatefulPartitionedCall/functional_1/inception_v3_1/batch_normalization_52_1/batchnorm/sub"], "attr": {"T": {"type": "DT_FLOAT"}}}, {"name": "StatefulPartitionedCall/functional_1/inception_v3_1/batch_normalization_55_1/batchnorm/add_1", "op": "AddV2", "input": ["StatefulPartitionedCall/functional_1/inception_v3_1/batch_normalization_55_1/batchnorm/mul", "StatefulPartitionedCall/functional_1/inception_v3_1/batch_normalization_55_1/batchnorm/sub"], "attr": {"T": {"type": "DT_FLOAT"}}}, {"name": "StatefulPartitionedCall/functional_1/inception_v3_1/activation_52_1/Relu", "op": "Relu", "input": ["StatefulPartitionedCall/functional_1/inception_v3_1/batch_normalization_52_1/batchnorm/add_1"], "attr": {"T": {"type": "DT_FLOAT"}}}, {"name": "StatefulPartitionedCall/functional_1/inception_v3_1/activation_55_1/Relu", "op": "Relu", "input": ["StatefulPartitionedCall/functional_1/inception_v3_1/batch_normalization_55_1/batchnorm/add_1"], "attr": {"T": {"type": "DT_FLOAT"}}}, {"name": "StatefulPartitionedCall/functional_1/inception_v3_1/batch_normalization_53_1/batchnorm/mul", "op": "Conv2D", "input": ["StatefulPartitionedCall/functional_1/inception_v3_1/activation_52_1/Relu", "StatefulPartitionedCall/functional_1/inception_v3_1/conv2d_53_1/convolution/merged_input"], "device": "/device:CPU:0", "attr": {"explicit_paddings": {"list": {}}, "use_cudnn_on_gpu": {"b": true}, "_input_shapes": {"list": {"shape": [{"dim": [{"size": "-2"}, {"size": "-5"}, {"size": "-7"}, {"size": "160"}]}, {"dim": [{"size": "7"}, {"size": "1"}, {"size": "160"}, {"size": "192"}]}]}}, "data_format": {"s": "TkhXQw=="}, "padding": {"s": "U0FNRQ=="}, "T": {"type": "DT_FLOAT"}, "strides": {"list": {"i": ["1", "1", "1", "1"]}}, "dilations": {"list": {"i": ["1", "1", "1", "1"]}}}}, {"name": "StatefulPartitionedCall/functional_1/inception_v3_1/batch_normalization_56_1/batchnorm/mul", "op": "Conv2D", "input": ["StatefulPartitionedCall/functional_1/inception_v3_1/activation_55_1/Relu", "StatefulPartitionedCall/functional_1/inception_v3_1/conv2d_56_1/convolution/merged_input"], "device": "/device:CPU:0", "attr": {"explicit_paddings": {"list": {}}, "_input_shapes": {"list": {"shape": [{"dim": [{"size": "-2"}, {"size": "-5"}, {"size": "-7"}, {"size": "160"}]}, {"dim": [{"size": "1"}, {"size": "7"}, {"size": "160"}, {"size": "160"}]}]}}, "use_cudnn_on_gpu": {"b": true}, "data_format": {"s": "TkhXQw=="}, "padding": {"s": "U0FNRQ=="}, "strides": {"list": {"i": ["1", "1", "1", "1"]}}, "T": {"type": "DT_FLOAT"}, "dilations": {"list": {"i": ["1", "1", "1", "1"]}}}}, {"name": "StatefulPartitionedCall/functional_1/inception_v3_1/batch_normalization_53_1/batchnorm/add_1", "op": "AddV2", "input": ["StatefulPartitionedCall/functional_1/inception_v3_1/batch_normalization_53_1/batchnorm/mul", "StatefulPartitionedCall/functional_1/inception_v3_1/batch_normalization_53_1/batchnorm/sub"], "attr": {"T": {"type": "DT_FLOAT"}}}, {"name": "StatefulPartitionedCall/functional_1/inception_v3_1/batch_normalization_56_1/batchnorm/add_1", "op": "AddV2", "input": ["StatefulPartitionedCall/functional_1/inception_v3_1/batch_normalization_56_1/batchnorm/mul", "StatefulPartitionedCall/functional_1/inception_v3_1/batch_normalization_56_1/batchnorm/sub"], "attr": {"T": {"type": "DT_FLOAT"}}}, {"name": "StatefulPartitionedCall/functional_1/inception_v3_1/activation_56_1/Relu", "op": "Relu", "input": ["StatefulPartitionedCall/functional_1/inception_v3_1/batch_normalization_56_1/batchnorm/add_1"], "attr": {"T": {"type": "DT_FLOAT"}}}, {"name": "StatefulPartitionedCall/functional_1/inception_v3_1/batch_normalization_57_1/batchnorm/mul", "op": "Conv2D", "input": ["StatefulPartitionedCall/functional_1/inception_v3_1/activation_56_1/Relu", "StatefulPartitionedCall/functional_1/inception_v3_1/conv2d_57_1/convolution/merged_input"], "device": "/device:CPU:0", "attr": {"explicit_paddings": {"list": {}}, "_input_shapes": {"list": {"shape": [{"dim": [{"size": "-2"}, {"size": "-5"}, {"size": "-7"}, {"size": "160"}]}, {"dim": [{"size": "7"}, {"size": "1"}, {"size": "160"}, {"size": "160"}]}]}}, "use_cudnn_on_gpu": {"b": true}, "padding": {"s": "U0FNRQ=="}, "data_format": {"s": "TkhXQw=="}, "T": {"type": "DT_FLOAT"}, "strides": {"list": {"i": ["1", "1", "1", "1"]}}, "dilations": {"list": {"i": ["1", "1", "1", "1"]}}}}, {"name": "StatefulPartitionedCall/functional_1/inception_v3_1/batch_normalization_57_1/batchnorm/add_1", "op": "AddV2", "input": ["StatefulPartitionedCall/functional_1/inception_v3_1/batch_normalization_57_1/batchnorm/mul", "StatefulPartitionedCall/functional_1/inception_v3_1/batch_normalization_57_1/batchnorm/sub"], "attr": {"T": {"type": "DT_FLOAT"}}}, {"name": "StatefulPartitionedCall/functional_1/inception_v3_1/activation_57_1/Relu", "op": "Relu", "input": ["StatefulPartitionedCall/functional_1/inception_v3_1/batch_normalization_57_1/batchnorm/add_1"], "attr": {"T": {"type": "DT_FLOAT"}}}, {"name": "StatefulPartitionedCall/functional_1/inception_v3_1/batch_normalization_58_1/batchnorm/mul", "op": "Conv2D", "input": ["StatefulPartitionedCall/functional_1/inception_v3_1/activation_57_1/Relu", "StatefulPartitionedCall/functional_1/inception_v3_1/conv2d_58_1/convolution/merged_input"], "device": "/device:CPU:0", "attr": {"explicit_paddings": {"list": {}}, "_input_shapes": {"list": {"shape": [{"dim": [{"size": "-2"}, {"size": "-5"}, {"size": "-7"}, {"size": "160"}]}, {"dim": [{"size": "1"}, {"size": "7"}, {"size": "160"}, {"size": "192"}]}]}}, "use_cudnn_on_gpu": {"b": true}, "data_format": {"s": "TkhXQw=="}, "padding": {"s": "U0FNRQ=="}, "T": {"type": "DT_FLOAT"}, "strides": {"list": {"i": ["1", "1", "1", "1"]}}, "dilations": {"list": {"i": ["1", "1", "1", "1"]}}}}, {"name": "StatefulPartitionedCall/functional_1/inception_v3_1/batch_normalization_58_1/batchnorm/add_1", "op": "AddV2", "input": ["StatefulPartitionedCall/functional_1/inception_v3_1/batch_normalization_58_1/batchnorm/mul", "StatefulPartitionedCall/functional_1/inception_v3_1/batch_normalization_58_1/batchnorm/sub"], "attr": {"T": {"type": "DT_FLOAT"}}}, {"name": "StatefulPartitionedCall/functional_1/inception_v3_1/mixed6_1/concat", "op": "ConcatV2", "input": ["StatefulPartitionedCall/functional_1/inception_v3_1/batch_normalization_50_1/batchnorm/add_1", "StatefulPartitionedCall/functional_1/inception_v3_1/batch_normalization_53_1/batchnorm/add_1", "StatefulPartitionedCall/functional_1/inception_v3_1/batch_normalization_58_1/batchnorm/add_1", "StatefulPartitionedCall/functional_1/inception_v3_1/batch_normalization_59_1/batchnorm/add_1", "StatefulPartitionedCall/functional_1/inception_v3_1/mixed6_1/concat/axis"], "attr": {"Tidx": {"type": "DT_INT32"}, "T": {"type": "DT_FLOAT"}, "N": {"i": "4"}}}, {"name": "StatefulPartitionedCall/functional_1/inception_v3_1/activation_50_1/Relu", "op": "Relu", "input": ["StatefulPartitionedCall/functional_1/inception_v3_1/mixed6_1/concat"], "attr": {"T": {"type": "DT_FLOAT"}}}, {"name": "StatefulPartitionedCall/functional_1/inception_v3_1/batch_normalization_60_1/batchnorm/mul", "op": "Conv2D", "input": ["StatefulPartitionedCall/functional_1/inception_v3_1/activation_50_1/Relu", "StatefulPartitionedCall/functional_1/inception_v3_1/conv2d_60_1/convolution/merged_input"], "device": "/device:CPU:0", "attr": {"explicit_paddings": {"list": {}}, "use_cudnn_on_gpu": {"b": true}, "_input_shapes": {"list": {"shape": [{"dim": [{"size": "-2"}, {"size": "-5"}, {"size": "-7"}, {"size": "768"}]}, {"dim": [{"size": "1"}, {"size": "1"}, {"size": "768"}, {"size": "192"}]}]}}, "data_format": {"s": "TkhXQw=="}, "padding": {"s": "U0FNRQ=="}, "T": {"type": "DT_FLOAT"}, "strides": {"list": {"i": ["1", "1", "1", "1"]}}, "dilations": {"list": {"i": ["1", "1", "1", "1"]}}}}, {"name": "StatefulPartitionedCall/functional_1/inception_v3_1/batch_normalization_61_1/batchnorm/mul", "op": "Conv2D", "input": ["StatefulPartitionedCall/functional_1/inception_v3_1/activation_50_1/Relu", "StatefulPartitionedCall/functional_1/inception_v3_1/conv2d_61_1/convolution/merged_input"], "device": "/device:CPU:0", "attr": {"explicit_paddings": {"list": {}}, "use_cudnn_on_gpu": {"b": true}, "_input_shapes": {"list": {"shape": [{"dim": [{"size": "-2"}, {"size": "-5"}, {"size": "-7"}, {"size": "768"}]}, {"dim": [{"size": "1"}, {"size": "1"}, {"size": "768"}, {"size": "192"}]}]}}, "data_format": {"s": "TkhXQw=="}, "padding": {"s": "U0FNRQ=="}, "strides": {"list": {"i": ["1", "1", "1", "1"]}}, "T": {"type": "DT_FLOAT"}, "dilations": {"list": {"i": ["1", "1", "1", "1"]}}}}, {"name": "StatefulPartitionedCall/functional_1/inception_v3_1/batch_normalization_64_1/batchnorm/mul", "op": "Conv2D", "input": ["StatefulPartitionedCall/functional_1/inception_v3_1/activation_50_1/Relu", "StatefulPartitionedCall/functional_1/inception_v3_1/conv2d_64_1/convolution/merged_input"], "device": "/device:CPU:0", "attr": {"explicit_paddings": {"list": {}}, "use_cudnn_on_gpu": {"b": true}, "_input_shapes": {"list": {"shape": [{"dim": [{"size": "-2"}, {"size": "-5"}, {"size": "-7"}, {"size": "768"}]}, {"dim": [{"size": "1"}, {"size": "1"}, {"size": "768"}, {"size": "192"}]}]}}, "data_format": {"s": "TkhXQw=="}, "padding": {"s": "U0FNRQ=="}, "T": {"type": "DT_FLOAT"}, "strides": {"list": {"i": ["1", "1", "1", "1"]}}, "dilations": {"list": {"i": ["1", "1", "1", "1"]}}}}, {"name": "StatefulPartitionedCall/functional_1/inception_v3_1/average_pooling2d_6_1/AvgPool", "op": "AvgPool", "input": ["StatefulPartitionedCall/functional_1/inception_v3_1/activation_50_1/Relu"], "attr": {"padding": {"s": "U0FNRQ=="}, "data_format": {"s": "TkhXQw=="}, "T": {"type": "DT_FLOAT"}, "strides": {"list": {"i": ["1", "1", "1", "1"]}}, "ksize": {"list": {"i": ["1", "3", "3", "1"]}}}}, {"name": "StatefulPartitionedCall/functional_1/inception_v3_1/batch_normalization_60_1/batchnorm/add_1", "op": "AddV2", "input": ["StatefulPartitionedCall/functional_1/inception_v3_1/batch_normalization_60_1/batchnorm/mul", "StatefulPartitionedCall/functional_1/inception_v3_1/batch_normalization_60_1/batchnorm/sub"], "attr": {"T": {"type": "DT_FLOAT"}}}, {"name": "StatefulPartitionedCall/functional_1/inception_v3_1/batch_normalization_61_1/batchnorm/add_1", "op": "AddV2", "input": ["StatefulPartitionedCall/functional_1/inception_v3_1/batch_normalization_61_1/batchnorm/mul", "StatefulPartitionedCall/functional_1/inception_v3_1/batch_normalization_61_1/batchnorm/sub"], "attr": {"T": {"type": "DT_FLOAT"}}}, {"name": "StatefulPartitionedCall/functional_1/inception_v3_1/batch_normalization_64_1/batchnorm/add_1", "op": "AddV2", "input": ["StatefulPartitionedCall/functional_1/inception_v3_1/batch_normalization_64_1/batchnorm/mul", "StatefulPartitionedCall/functional_1/inception_v3_1/batch_normalization_64_1/batchnorm/sub"], "attr": {"T": {"type": "DT_FLOAT"}}}, {"name": "StatefulPartitionedCall/functional_1/inception_v3_1/batch_normalization_69_1/batchnorm/mul", "op": "Conv2D", "input": ["StatefulPartitionedCall/functional_1/inception_v3_1/average_pooling2d_6_1/AvgPool", "StatefulPartitionedCall/functional_1/inception_v3_1/conv2d_69_1/convolution/merged_input"], "device": "/device:CPU:0", "attr": {"explicit_paddings": {"list": {}}, "use_cudnn_on_gpu": {"b": true}, "_input_shapes": {"list": {"shape": [{"dim": [{"size": "-2"}, {"size": "-5"}, {"size": "-7"}, {"size": "768"}]}, {"dim": [{"size": "1"}, {"size": "1"}, {"size": "7…
"3"}, {"size": "448"}, {"size": "384"}]}]}}, "data_format": {"s": "TkhXQw=="}, "padding": {"s": "U0FNRQ=="}, "strides": {"list": {"i": ["1", "1", "1", "1"]}}, "T": {"type": "DT_FLOAT"}, "dilations": {"list": {"i": ["1", "1", "1", "1"]}}}}, {"name": "StatefulPartitionedCall/functional_1/inception_v3_1/batch_normalization_78_1/batchnorm/add_1", "op": "AddV2", "input": ["StatefulPartitionedCall/functional_1/inception_v3_1/batch_normalization_78_1/batchnorm/mul", "StatefulPartitionedCall/functional_1/inception_v3_1/batch_normalization_78_1/batchnorm/sub"], "attr": {"T": {"type": "DT_FLOAT"}}}, {"name": "StatefulPartitionedCall/functional_1/inception_v3_1/batch_normalization_79_1/batchnorm/add_1", "op": "AddV2", "input": ["StatefulPartitionedCall/functional_1/inception_v3_1/batch_normalization_79_1/batchnorm/mul", "StatefulPartitionedCall/functional_1/inception_v3_1/batch_normalization_79_1/batchnorm/sub"], "attr": {"T": {"type": "DT_FLOAT"}}}, {"name": "StatefulPartitionedCall/functional_1/inception_v3_1/batch_normalization_81_1/batchnorm/add_1", "op": "AddV2", "input": ["StatefulPartitionedCall/functional_1/inception_v3_1/batch_normalization_81_1/batchnorm/mul", "StatefulPartitionedCall/functional_1/inception_v3_1/batch_normalization_81_1/batchnorm/sub"], "attr": {"T": {"type": "DT_FLOAT"}}}, {"name": "StatefulPartitionedCall/functional_1/inception_v3_1/activation_81_1/Relu", "op": "Relu", "input": ["StatefulPartitionedCall/functional_1/inception_v3_1/batch_normalization_81_1/batchnorm/add_1"], "attr": {"T": {"type": "DT_FLOAT"}}}, {"name": "StatefulPartitionedCall/functional_1/inception_v3_1/batch_normalization_82_1/batchnorm/mul", "op": "Conv2D", "input": ["StatefulPartitionedCall/functional_1/inception_v3_1/activation_81_1/Relu", "StatefulPartitionedCall/functional_1/inception_v3_1/conv2d_82_1/convolution/merged_input"], "device": "/device:CPU:0", "attr": {"explicit_paddings": {"list": {}}, "_input_shapes": {"list": {"shape": [{"dim": [{"size": "-2"}, {"size": "-11"}, {"size": "-13"}, {"size": "384"}]}, {"dim": [{"size": "1"}, {"size": "3"}, {"size": "384"}, {"size": "384"}]}]}}, "use_cudnn_on_gpu": {"b": true}, "data_format": {"s": "TkhXQw=="}, "padding": {"s": "U0FNRQ=="}, "T": {"type": "DT_FLOAT"}, "strides": {"list": {"i": ["1", "1", "1", "1"]}}, "dilations": {"list": {"i": ["1", "1", "1", "1"]}}}}, {"name": "StatefulPartitionedCall/functional_1/inception_v3_1/batch_normalization_83_1/batchnorm/mul", "op": "Conv2D", "input": ["StatefulPartitionedCall/functional_1/inception_v3_1/activation_81_1/Relu", "StatefulPartitionedCall/functional_1/inception_v3_1/conv2d_83_1/convolution/merged_input"], "device": "/device:CPU:0", "attr": {"explicit_paddings": {"list": {}}, "_input_shapes": {"list": {"shape": [{"dim": [{"size": "-2"}, {"size": "-11"}, {"size": "-13"}, {"size": "384"}]}, {"dim": [{"size": "3"}, {"size": "1"}, {"size": "384"}, {"size": "384"}]}]}}, "use_cudnn_on_gpu": {"b": true}, "padding": {"s": "U0FNRQ=="}, "data_format": {"s": "TkhXQw=="}, "T": {"type": "DT_FLOAT"}, "strides": {"list": {"i": ["1", "1", "1", "1"]}}, "dilations": {"list": {"i": ["1", "1", "1", "1"]}}}}, {"name": "StatefulPartitionedCall/functional_1/inception_v3_1/batch_normalization_82_1/batchnorm/add_1", "op": "AddV2", "input": ["StatefulPartitionedCall/functional_1/inception_v3_1/batch_normalization_82_1/batchnorm/mul", "StatefulPartitionedCall/functional_1/inception_v3_1/batch_normalization_82_1/batchnorm/sub"], "attr": {"T": {"type": "DT_FLOAT"}}}, {"name": "StatefulPartitionedCall/functional_1/inception_v3_1/batch_normalization_83_1/batchnorm/add_1", "op": "AddV2", "input": ["StatefulPartitionedCall/functional_1/inception_v3_1/batch_normalization_83_1/batchnorm/mul", "StatefulPartitionedCall/functional_1/inception_v3_1/batch_normalization_83_1/batchnorm/sub"], "attr": {"T": {"type": "DT_FLOAT"}}}, {"name": "StatefulPartitionedCall/functional_1/inception_v3_1/mixed9_1/concat", "op": "ConcatV2", "input": ["StatefulPartitionedCall/functional_1/inception_v3_1/batch_normalization_76_1/batchnorm/add_1", "StatefulPartitionedCall/functional_1/inception_v3_1/batch_normalization_78_1/batchnorm/add_1", "StatefulPartitionedCall/functional_1/inception_v3_1/batch_normalization_79_1/batchnorm/add_1", "StatefulPartitionedCall/functional_1/inception_v3_1/batch_normalization_82_1/batchnorm/add_1", "StatefulPartitionedCall/functional_1/inception_v3_1/batch_normalization_83_1/batchnorm/add_1", "StatefulPartitionedCall/functional_1/inception_v3_1/batch_normalization_84_1/batchnorm/add_1", "StatefulPartitionedCall/functional_1/inception_v3_1/mixed9_1/concat/axis"], "attr": {"Tidx": {"type": "DT_INT32"}, "T": {"type": "DT_FLOAT"}, "N": {"i": "6"}}}, {"name": "StatefulPartitionedCall/functional_1/inception_v3_1/activation_76_1/Relu", "op": "Relu", "input": ["StatefulPartitionedCall/functional_1/inception_v3_1/mixed9_1/concat"], "attr": {"T": {"type": "DT_FLOAT"}}}, {"name": "StatefulPartitionedCall/functional_1/inception_v3_1/batch_normalization_85_1/batchnorm/mul", "op": "Conv2D", "input": ["StatefulPartitionedCall/functional_1/inception_v3_1/activation_76_1/Relu", "StatefulPartitionedCall/functional_1/inception_v3_1/conv2d_85_1/convolution/merged_input"], "device": "/device:CPU:0", "attr": {"explicit_paddings": {"list": {}}, "_input_shapes": {"list": {"shape": [{"dim": [{"size": "-2"}, {"size": "-11"}, {"size": "-13"}, {"size": "2048"}]}, {"dim": [{"size": "1"}, {"size": "1"}, {"size": "2048"}, {"size": "320"}]}]}}, "use_cudnn_on_gpu": {"b": true}, "data_format": {"s": "TkhXQw=="}, "padding": {"s": "U0FNRQ=="}, "strides": {"list": {"i": ["1", "1", "1", "1"]}}, "T": {"type": "DT_FLOAT"}, "dilations": {"list": {"i": ["1", "1", "1", "1"]}}}}, {"name": "StatefulPartitionedCall/functional_1/inception_v3_1/batch_normalization_86_1/batchnorm/mul", "op": "Conv2D", "input": ["StatefulPartitionedCall/functional_1/inception_v3_1/activation_76_1/Relu", "StatefulPartitionedCall/functional_1/inception_v3_1/conv2d_86_1/convolution/merged_input"], "device": "/device:CPU:0", "attr": {"explicit_paddings": {"list": {}}, "use_cudnn_on_gpu": {"b": true}, "_input_shapes": {"list": {"shape": [{"dim": [{"size": "-2"}, {"size": "-11"}, {"size": "-13"}, {"size": "2048"}]}, {"dim": [{"size": "1"}, {"size": "1"}, {"size": "2048"}, {"size": "384"}]}]}}, "data_format": {"s": "TkhXQw=="}, "padding": {"s": "U0FNRQ=="}, "strides": {"list": {"i": ["1", "1", "1", "1"]}}, "T": {"type": "DT_FLOAT"}, "dilations": {"list": {"i": ["1", "1", "1", "1"]}}}}, {"name": "StatefulPartitionedCall/functional_1/inception_v3_1/batch_normalization_89_1/batchnorm/mul", "op": "Conv2D", "input": ["StatefulPartitionedCall/functional_1/inception_v3_1/activation_76_1/Relu", "StatefulPartitionedCall/functional_1/inception_v3_1/conv2d_89_1/convolution/merged_input"], "device": "/device:CPU:0", "attr": {"explicit_paddings": {"list": {}}, "_input_shapes": {"list": {"shape": [{"dim": [{"size": "-2"}, {"size": "-11"}, {"size": "-13"}, {"size": "2048"}]}, {"dim": [{"size": "1"}, {"size": "1"}, {"size": "2048"}, {"size": "448"}]}]}}, "use_cudnn_on_gpu": {"b": true}, "data_format": {"s": "TkhXQw=="}, "padding": {"s": "U0FNRQ=="}, "strides": {"list": {"i": ["1", "1", "1", "1"]}}, "T": {"type": "DT_FLOAT"}, "dilations": {"list": {"i": ["1", "1", "1", "1"]}}}}, {"name": "StatefulPartitionedCall/functional_1/inception_v3_1/average_pooling2d_8_1/AvgPool", "op": "AvgPool", "input": ["StatefulPartitionedCall/functional_1/inception_v3_1/activation_76_1/Relu"], "attr": {"data_format": {"s": "TkhXQw=="}, "padding": {"s": "U0FNRQ=="}, "T": {"type": "DT_FLOAT"}, "strides": {"list": {"i": ["1", "1", "1", "1"]}}, "ksize": {"list": {"i": ["1", "3", "3", "1"]}}}}, {"name": "StatefulPartitionedCall/functional_1/inception_v3_1/batch_normalization_85_1/batchnorm/add_1", "op": "AddV2", "input": ["StatefulPartitionedCall/functional_1/inception_v3_1/batch_normalization_85_1/batchnorm/mul", "StatefulPartitionedCall/functional_1/inception_v3_1/batch_normalization_85_1/batchnorm/sub"], "attr": {"T": {"type": "DT_FLOAT"}}}, {"name": "StatefulPartitionedCall/functional_1/inception_v3_1/batch_normalization_86_1/batchnorm/add_1", "op": "AddV2", "input": ["StatefulPartitionedCall/functional_1/inception_v3_1/batch_normalization_86_1/batchnorm/mul", "StatefulPartitionedCall/functional_1/inception_v3_1/batch_normalization_86_1/batchnorm/sub"], "attr": {"T": {"type": "DT_FLOAT"}}}, {"name": "StatefulPartitionedCall/functional_1/inception_v3_1/batch_normalization_89_1/batchnorm/add_1", "op": "AddV2", "input": ["StatefulPartitionedCall/functional_1/inception_v3_1/batch_normalization_89_1/batchnorm/mul", "StatefulPartitionedCall/functional_1/inception_v3_1/batch_normalization_89_1/batchnorm/sub"], "attr": {"T": {"type": "DT_FLOAT"}}}, {"name": "StatefulPartitionedCall/functional_1/inception_v3_1/batch_normalization_93_1/batchnorm/mul", "op": "Conv2D", "input": ["StatefulPartitionedCall/functional_1/inception_v3_1/average_pooling2d_8_1/AvgPool", "StatefulPartitionedCall/functional_1/inception_v3_1/conv2d_93_1/convolution/merged_input"], "device": "/device:CPU:0", "attr": {"explicit_paddings": {"list": {}}, "_input_shapes": {"list": {"shape": [{"dim": [{"size": "-2"}, {"size": "-11"}, {"size": "-13"}, {"size": "2048"}]}, {"dim": [{"size": "1"}, {"size": "1"}, {"size": "2048"}, {"size": "192"}]}]}}, "use_cudnn_on_gpu": {"b": true}, "padding": {"s": "U0FNRQ=="}, "data_format": {"s": "TkhXQw=="}, "T": {"type": "DT_FLOAT"}, "strides": {"list": {"i": ["1", "1", "1", "1"]}}, "dilations": {"list": {"i": ["1", "1", "1", "1"]}}}}, {"name": "StatefulPartitionedCall/functional_1/inception_v3_1/activation_86_1/Relu", "op": "Relu", "input": ["StatefulPartitionedCall/functional_1/inception_v3_1/batch_normalization_86_1/batchnorm/add_1"], "attr": {"T": {"type": "DT_FLOAT"}}}, {"name": "StatefulPartitionedCall/functional_1/inception_v3_1/activation_89_1/Relu", "op": "Relu", "input": ["StatefulPartitionedCall/functional_1/inception_v3_1/batch_normalization_89_1/batchnorm/add_1"], "attr": {"T": {"type": "DT_FLOAT"}}}, {"name": "StatefulPartitionedCall/functional_1/inception_v3_1/batch_normalization_93_1/batchnorm/add_1", "op": "AddV2", "input": ["StatefulPartitionedCall/functional_1/inception_v3_1/batch_normalization_93_1/batchnorm/mul", "StatefulPartitionedCall/functional_1/inception_v3_1/batch_normalization_93_1/batchnorm/sub"], "attr": {"T": {"type": "DT_FLOAT"}}}, {"name": "StatefulPartitionedCall/functional_1/inception_v3_1/batch_normalization_87_1/batchnorm/mul", "op": "Conv2D", "input": ["StatefulPartitionedCall/functional_1/inception_v3_1/activation_86_1/Relu", "StatefulPartitionedCall/functional_1/inception_v3_1/conv2d_87_1/convolution/merged_input"], "device": "/device:CPU:0", "attr": {"explicit_paddings": {"list": {}}, "use_cudnn_on_gpu": {"b": true}, "_input_shapes": {"list": {"shape": [{"dim": [{"size": "-2"}, {"size": "-11"}, {"size": "-13"}, {"size": "384"}]}, {"dim": [{"size": "1"}, {"size": "3"}, {"size": "384"}, {"size": "384"}]}]}}, "padding": {"s": "U0FNRQ=="}, "data_format": {"s": "TkhXQw=="}, "T": {"type": "DT_FLOAT"}, "strides": {"list": {"i": ["1", "1", "1", "1"]}}, "dilations": {"list": {"i": ["1", "1", "1", "1"]}}}}, {"name": "StatefulPartitionedCall/functional_1/inception_v3_1/batch_normalization_88_1/batchnorm/mul", "op": "Conv2D", "input": ["StatefulPartitionedCall/functional_1/inception_v3_1/activation_86_1/Relu", "StatefulPartitionedCall/functional_1/inception_v3_1/conv2d_88_1/convolution/merged_input"], "device": "/device:CPU:0", "attr": {"explicit_paddings": {"list": {}}, "_input_shapes": {"list": {"shape": [{"dim": [{"size": "-2"}, {"size": "-11"}, {"size": "-13"}, {"size": "384"}]}, {"dim": [{"size": "3"}, {"size": "1"}, {"size": "384"}, {"size": "384"}]}]}}, "use_cudnn_on_gpu": {"b": true}, "padding": {"s": "U0FNRQ=="}, "data_format": {"s": "TkhXQw=="}, "strides": {"list": {"i": ["1", "1", "1", "1"]}}, "T": {"type": "DT_FLOAT"}, "dilations": {"list": {"i": ["1", "1", "1", "1"]}}}}, {"name": "StatefulPartitionedCall/functional_1/inception_v3_1/batch_normalization_90_1/batchnorm/mul", "op": "Conv2D", "input": ["StatefulPartitionedCall/functional_1/inception_v3_1/activation_89_1/Relu", "StatefulPartitionedCall/functional_1/inception_v3_1/conv2d_90_1/convolution/merged_input"], "device": "/device:CPU:0", "attr": {"explicit_paddings": {"list": {}}, "_input_shapes": {"list": {"shape": [{"dim": [{"size": "-2"}, {"size": "-11"}, {"size": "-13"}, {"size": "448"}]}, {"dim": [{"size": "3"}, {"size": "3"}, {"size": "448"}, {"size": "384"}]}]}}, "use_cudnn_on_gpu": {"b": true}, "padding": {"s": "U0FNRQ=="}, "data_format": {"s": "TkhXQw=="}, "T": {"type": "DT_FLOAT"}, "strides": {"list": {"i": ["1", "1", "1", "1"]}}, "dilations": {"list": {"i": ["1", "1", "1", "1"]}}}}, {"name": "StatefulPartitionedCall/functional_1/inception_v3_1/batch_normalization_87_1/batchnorm/add_1", "op": "AddV2", "input": ["StatefulPartitionedCall/functional_1/inception_v3_1/batch_normalization_87_1/batchnorm/mul", "StatefulPartitionedCall/functional_1/inception_v3_1/batch_normalization_87_1/batchnorm/sub"], "attr": {"T": {"type": "DT_FLOAT"}}}, {"name": "StatefulPartitionedCall/functional_1/inception_v3_1/batch_normalization_88_1/batchnorm/add_1", "op": "AddV2", "input": ["StatefulPartitionedCall/functional_1/inception_v3_1/batch_normalization_88_1/batchnorm/mul", "StatefulPartitionedCall/functional_1/inception_v3_1/batch_normalization_88_1/batchnorm/sub"], "attr": {"T": {"type": "DT_FLOAT"}}}, {"name": "StatefulPartitionedCall/functional_1/inception_v3_1/batch_normalization_90_1/batchnorm/add_1", "op": "AddV2", "input": ["StatefulPartitionedCall/functional_1/inception_v3_1/batch_normalization_90_1/batchnorm/mul", "StatefulPartitionedCall/functional_1/inception_v3_1/batch_normalization_90_1/batchnorm/sub"], "attr": {"T": {"type": "DT_FLOAT"}}}, {"name": "StatefulPartitionedCall/functional_1/inception_v3_1/activation_90_1/Relu", "op": "Relu", "input": ["StatefulPartitionedCall/functional_1/inception_v3_1/batch_normalization_90_1/batchnorm/add_1"], "attr": {"T": {"type": "DT_FLOAT"}}}, {"name": "StatefulPartitionedCall/functional_1/inception_v3_1/batch_normalization_91_1/batchnorm/mul", "op": "Conv2D", "input": ["StatefulPartitionedCall/functional_1/inception_v3_1/activation_90_1/Relu", "StatefulPartitionedCall/functional_1/inception_v3_1/conv2d_91_1/convolution/merged_input"], "device": "/device:CPU:0", "attr": {"explicit_paddings": {"list": {}}, "use_cudnn_on_gpu": {"b": true}, "_input_shapes": {"list": {"shape": [{"dim": [{"size": "-2"}, {"size": "-11"}, {"size": "-13"}, {"size": "384"}]}, {"dim": [{"size": "1"}, {"size": "3"}, {"size": "384"}, {"size": "384"}]}]}}, "padding": {"s": "U0FNRQ=="}, "data_format": {"s": "TkhXQw=="}, "T": {"type": "DT_FLOAT"}, "strides": {"list": {"i": ["1", "1", "1", "1"]}}, "dilations": {"list": {"i": ["1", "1", "1", "1"]}}}}, {"name": "StatefulPartitionedCall/functional_1/inception_v3_1/batch_normalization_92_1/batchnorm/mul", "op": "Conv2D", "input": ["StatefulPartitionedCall/functional_1/inception_v3_1/activation_90_1/Relu", "StatefulPartitionedCall/functional_1/inception_v3_1/conv2d_92_1/convolution/merged_input"], "device": "/device:CPU:0", "attr": {"explicit_paddings": {"list": {}}, "use_cudnn_on_gpu": {"b": true}, "_input_shapes": {"list": {"shape": [{"dim": [{"size": "-2"}, {"size": "-11"}, {"size": "-13"}, {"size": "384"}]}, {"dim": [{"size": "3"}, {"size": "1"}, {"size": "384"}, {"size": "384"}]}]}}, "data_format": {"s": "TkhXQw=="}, "padding": {"s": "U0FNRQ=="}, "T": {"type": "DT_FLOAT"}, "strides": {"list": {"i": ["1", "1", "1", "1"]}}, "dilations": {"list": {"i": ["1", "1", "1", "1"]}}}}, {"name": "StatefulPartitionedCall/functional_1/inception_v3_1/batch_normalization_91_1/batchnorm/add_1", "op": "AddV2", "input": ["StatefulPartitionedCall/functional_1/inception_v3_1/batch_normalization_91_1/batchnorm/mul", "StatefulPartitionedCall/functional_1/inception_v3_1/batch_normalization_91_1/batchnorm/sub"], "attr": {"T": {"type": "DT_FLOAT"}}}, {"name": "StatefulPartitionedCall/functional_1/inception_v3_1/batch_normalization_92_1/batchnorm/add_1", "op": "AddV2", "input": ["StatefulPartitionedCall/functional_1/inception_v3_1/batch_normalization_92_1/batchnorm/mul", "StatefulPartitionedCall/functional_1/inception_v3_1/batch_normalization_92_1/batchnorm/sub"], "attr": {"T": {"type": "DT_FLOAT"}}}, {"name": "StatefulPartitionedCall/functional_1/inception_v3_1/mixed10_1/concat", "op": "ConcatV2", "input": ["StatefulPartitionedCall/functional_1/inception_v3_1/batch_normalization_85_1/batchnorm/add_1", "StatefulPartitionedCall/functional_1/inception_v3_1/batch_normalization_87_1/batchnorm/add_1", "StatefulPartitionedCall/functional_1/inception_v3_1/batch_normalization_88_1/batchnorm/add_1", "StatefulPartitionedCall/functional_1/inception_v3_1/batch_normalization_91_1/batchnorm/add_1", "StatefulPartitionedCall/functional_1/inception_v3_1/batch_normalization_92_1/batchnorm/add_1", "StatefulPartitionedCall/functional_1/inception_v3_1/batch_normalization_93_1/batchnorm/add_1", "StatefulPartitionedCall/functional_1/inception_v3_1/mixed10_1/concat/axis"], "attr": {"Tidx": {"type": "DT_INT32"}, "T": {"type": "DT_FLOAT"}, "N": {"i": "6"}}}, {"name": "StatefulPartitionedCall/functional_1/inception_v3_1/activation_85_1/Relu", "op": "Relu", "input": ["StatefulPartitionedCall/functional_1/inception_v3_1/mixed10_1/concat"], "attr": {"T": {"type": "DT_FLOAT"}}}, {"name": "StatefulPartitionedCall/functional_1/global_average_pooling2d_1/Mean", "op": "Mean", "input": ["StatefulPartitionedCall/functional_1/inception_v3_1/activation_85_1/Relu", "StatefulPartitionedCall/functional_1/global_average_pooling2d_1/Mean/reduction_indices"], "attr": {"Tidx": {"type": "DT_INT32"}, "T": {"type": "DT_FLOAT"}, "keep_dims": {"b": false}}}, {"name": "StatefulPartitionedCall/functional_1/dense_1/Relu", "op": "_FusedMatMul", "input": ["StatefulPartitionedCall/functional_1/global_average_pooling2d_1/Mean", "StatefulPartitionedCall/functional_1/dense_1/Cast/ReadVariableOp", "StatefulPartitionedCall/functional_1/dense_1/BiasAdd/ReadVariableOp"], "device": "/device:CPU:0", "attr": {"transpose_a": {"b": false}, "epsilon": {"f": 0.0}, "leakyrelu_alpha": {"f": 0.2}, "_input_shapes": {"list": {"shape": [{"dim": [{"size": "-2"}, {"size": "2048"}]}, {"dim": [{"size": "2048"}, {"size": "256"}]}]}}, "fused_ops": {"list": {"s": ["Qmlhc0FkZA==", "UmVsdQ=="]}}, "T": {"type": "DT_FLOAT"}, "num_args": {"i": "1"}, "transpose_b": {"b": false}}}, {"name": "StatefulPartitionedCall/functional_1/dense_1_2/BiasAdd", "op": "_FusedMatMul", "input": ["StatefulPartitionedCall/functional_1/dense_1/Relu", "StatefulPartitionedCall/functional_1/dense_1_2/Cast/ReadVariableOp", "StatefulPartitionedCall/functional_1/dense_1_2/BiasAdd/ReadVariableOp"], "device": "/device:CPU:0", "attr": {"transpose_a": {"b": false}, "epsilon": {"f": 0.0}, "leakyrelu_alpha": {"f": 0.2}, "_input_shapes": {"list": {"shape": [{"dim": [{"size": "-2"}, {"size": "256"}]}, {"dim": [{"size": "256"}, {"size": "2"}]}]}}, "num_args": {"i": "1"}, "T": {"type": "DT_FLOAT"}, "fused_ops": {"list": {"s": ["Qmlhc0FkZA=="]}}, "transpose_b": {"b": false}}}, {"name": "StatefulPartitionedCall/functional_1/dense_1_2/Softmax", "op": "Softmax", "input": ["StatefulPartitionedCall/functional_1/dense_1_2/BiasAdd"], "attr": {"T": {"type": "DT_FLOAT"}}}, {"name": "Identity", "op": "Identity", "input": ["StatefulPartitionedCall/functional_1/dense_1_2/Softmax"], "attr": {"T": {"type": "DT_FLOAT"}}}], "library": {}, "versions": {"producer": 2474}}, "weightsManifest": [{"paths": ["group1-shard1of22.bin", "group1-shard2of22.bin", "group1-shard3of22.bin", "group1-shard4of22.bin", "group1-shard5of22.bin", "group1-shard6of22.bin", "group1-shard7of22.bin", "group1-shard8of22.bin", "group1-shard9of22.bin", "group1-shard10of22.bin", "group1-shard11of22.bin", "group1-shard12of22.bin", "group1-shard13of22.bin", "group1-shard14of22.bin", "group1-shard15of22.bin", "group1-shard16of22.bin", "group1-shard17of22.bin", "group1-shard18of22.bin", "group1-shard19of22.bin", "group1-shard20of22.bin", "group1-shard21of22.bin", "group1-shard22of22.bin"], "weights": [{"name": "StatefulPartitionedCall/functional_1/inception_v3_1/conv2d_85_1/convolution/merged_input", "shape": [1, 1, 2048, 320], "dtype": "float32"}, {"name": "StatefulPartitionedCall/functional_1/inception_v3_1/batch_normalization_85_1/batchnorm/sub", "shape": [1, 1, 1, 320], "dtype": "float32"}, {"name": "StatefulPartitionedCall/functional_1/inception_v3_1/conv2d_87_1/convolution/merged_input", "shape": [1, 3, 384, 384], "dtype": "float32"}, {"name": "StatefulPartitionedCall/functional_1/inception_v3_1/batch_normalization_87_1/batchnorm/sub", "shape": [1, 1, 1, 384], "dtype": "float32"}, {"name": "StatefulPartitionedCall/functional_1/inception_v3_1/conv2d_86_1/convolution/merged_input", "shape": [1, 1, 2048, 384], "dtype": "float32"}, {"name": "StatefulPartitionedCall/functional_1/inception_v3_1/batch_normalization_86_1/batchnorm/sub", "shape": [1, 1, 1, 384], "dtype": "float32"}, {"name": "StatefulPartitionedCall/functional_1/inception_v3_1/conv2d_88_1/convolution/merged_input", "shape": [3, 1, 384, 384], "dtype": "float32"}, {"name": "StatefulPartitionedCall/functional_1/inception_v3_1/batch_normalization_88_1/batchnorm/sub", "shape": [1, 1, 1, 384], "dtype": "float32"}, {"name": "StatefulPartitionedCall/functional_1/inception_v3_1/conv2d_91_1/convolution/merged_input", "shape": [1, 3, 384, 384], "dtype": "float32"}, {"name": "StatefulPartitionedCall/functional_1/inception_v3_1/batch_normalization_91_1/batchnorm/sub", "shape": [1, 1, 1, 384], "dtype": "float32"}, {"name": "StatefulPartitionedCall/functional_1/inception_v3_1/conv2d_89_1/convolution/merged_input", "shape": [1, 1, 2048, 448], "dtype": "float32"}, {"name": "StatefulPartitionedCall/functional_1/inception_v3_1/batch_normalization_89_1/batchnorm/sub", "shape": [1, 1, 1, 448], "dtype": "float32"}, {"name": "StatefulPartitionedCall/functional_1/inception_v3_1/conv2d_90_1/convolution/merged_input", "shape": [3, 3, 448, 384], "dtype": "float32"}, {"name": "StatefulPartitionedCall/functional_1/inception_v3_1/batch_normalization_90_1/batchnorm/sub", "shape": [1, 1, 1, 384], "dtype": "float32"}, {"name": "StatefulPartitionedCall/functional_1/inception_v3_1/conv2d_92_1/convolution/merged_input", "shape": [3, 1, 384, 384], "dtype": "float32"}, {"name": "StatefulPartitionedCall/functional_1/inception_v3_1/batch_normalization_92_1/batchnorm/sub", "shape": [1, 1, 1, 384], "dtype": "float32"}, {"name": "StatefulPartitionedCall/functional_1/inception_v3_1/conv2d_76_1/convolution/merged_input", "shape": [1, 1, 1280, 320], "dtype": "float32"}, {"name": "StatefulPartitionedCall/functional_1/inception_v3_1/batch_normalization_76_1/batchnorm/sub", "shape": [1, 1, 1, 320], "dtype": "float32"}, {"name": "StatefulPartitionedCall/functional_1/inception_v3_1/conv2d_78_1/convolution/merged_input", "shape": [1, 3, 384, 384], "dtype": "float32"}, {"name": "StatefulPartitionedCall/functional_1/inception_v3_1/batch_normalization_78_1/batchnorm/sub", "shape": [1, 1, 1, 384], "dtype": "float32"}, {"name": "StatefulPartitionedCall/functional_1/inception_v3_1/conv2d_77_1/convolution/merged_input", "shape": [1, 1, 1280, 384], "dtype": "float32"}, {"name": "StatefulPartitionedCall/functional_1/inception_v3_1/batch_normalization_77_1/batchnorm/sub", "shape": [1, 1, 1, 384], "dtype": "float32"}, {"name": "StatefulPartitionedCall/functional_1/inception_v3_1/conv2d_79_1/convolution/merged_input", "shape": [3, 1, 384, 384], "dtype": "float32"}, {"name": "StatefulPartitionedCall/functional_1/inception_v3_1/batch_normalization_79_1/batchnorm/sub", "shape": [1, 1, 1, 384], "dtype": "float32"}, {"name": "StatefulPartitionedCall/functional_1/inception_v3_1/conv2d_82_1/convolution/merged_input", "shape": [1, 3, 384, 384], "dtype": "float32"}, {"name": "StatefulPartitionedCall/functional_1/inception_v3_1/batch_normalization_82_1/batchnorm/sub", "shape": [1, 1, 1, 384], "dtype": "float32"}, {"name": "StatefulPartitionedCall/functional_1/inception_v3_1/conv2d_80_1/convolution/merged_input", "shape": [1, 1, 1280, 448], "dtype": "float32"}, {"name": "StatefulPartitionedCall/functional_1/inception_v3_1/batch_normalization_80_1/batchnorm/sub", "shape": [1, 1, 1, 448], "dtype": "float32"}, {"name": "StatefulPartitionedCall/functional_1/inception_v3_1/conv2d_81_1/convolution/merged_input", "shape": [3, 3, 448, 384], "dtype": "float32"}, {"name": "StatefulPartitionedCall/functional_1/inception_v3_1/batch_normalization_81_1/batchnorm/sub", "shape": [1, 1, 1, 384], "dtype": "float32"}, {"name": "StatefulPartitionedCall/functional_1/inception_v3_1/conv2d_83_1/convolution/merged_input", "shape": [3, 1, 384, 384], "dtype": "float32"}, {"name": "StatefulPartitionedCall/functional_1/inception_v3_1/batch_normalization_83_1/batchnorm/sub", "shape": [1, 1, 1, 384], "dtype": "float32"}, {"name": "StatefulPartitionedCall/functional_1/inception_v3_1/conv2d_70_1/convolution/merged_input", "shape": [1, 1, 768, 192], "dtype": "float32"}, {"name": "StatefulPartitionedCall/functional_1/inception_v3_1/batch_normalization_70_1/batchnorm/sub", "shape": [1, 1, 1, 192], "dtype": "float32"}, {"name": "StatefulPartitionedCall/functional_1/inception_v3_1/conv2d_71_1/convolution/merged_input", "shape": [3, 3, 192, 320], "dtype": "float32"}, {"name": "StatefulPartitionedCall/functional_1/inception_v3_1/batch_normalization_71_1/batchnorm/sub", "shape": [1, 1, 1, 320], "dtype": "float32"}, {"name": "StatefulPartitionedCall/functional_1/inception_v3_1/conv2d_72_1/convolution/merged_input", "shape": [1, 1, 768, 192], "dtype": "float32"}, {"name": "StatefulPartitionedCall/functional_1/inception_v3_1/batch_normalization_72_1/batchnorm/sub", "shape": [1, 1, 1, 192], "dtype": "float32"}, {"name": "StatefulPartitionedCall/functional_1/inception_v3_1/conv2d_73_1/convolution/merged_input", "shape": [1, 7, 192, 192], "dtype": "float32"}, {"name": "StatefulPartitionedCall/functional_1/inception_v3_1/batch_normalization_73_1/batchnorm/sub", "shape": [1, 1, 1, 192], "dtype": "float32"}, {"name": "StatefulPartitionedCall/functional_1/inception_v3_1/conv2d_74_1/convolution/merged_input", "shape": [7, 1, 192, 192], "dtype": "float32"}, {"name": "StatefulPartitionedCall/functional_1/inception_v3_1/batch_normalization_74_1/batchnorm/sub", "shape": [1, 1, 1, 192], "dtype": "float32"}, {"name": "StatefulPartitionedCall/functional_1/inception_v3_1/conv2d_75_1/convolution/merged_input", "shape": [3, 3, 192, 192], "dtype": "float32"}, {"name": "StatefulPartitionedCall/functional_1/inception_v3_1/batch_normalization_75_1/batchnorm/sub", "shape": [1, 1, 1, 192], "dtype": "float32"}, {"name": "StatefulPartitionedCall/functional_1/inception_v3_1/conv2d_60_1/convolution/merged_input", "shape": [1, 1, 768, 192], "dtype": "float32"}, {"name": "StatefulPartitionedCall/functional_1/inception_v3_1/batch_normalization_60_1/batchnorm/sub", "shape": [1, 1, 1, 192], "dtype": "float32"}, {"name": "StatefulPartitionedCall/functional_1/inception_v3_1/conv2d_61_1/convolution/merged_input", "shape": [1, 1, 768, 192], "dtype": "float32"}, {"name": "StatefulPartitionedCall/functional_1/inception_v3_1/batch_normalization_61_1/batchnorm/sub", "shape": [1, 1, 1, 192], "dtype": "float32"}, {"name": "StatefulPartitionedCall/functional_1/inception_v3_1/conv2d_62_1/convolution/merged_input", "shape": [1, 7, 192, 192], "dtype": "float32"}, {"name": "StatefulPartitionedCall/functional_1/inception_v3_1/batch_normalization_62_1/batchnorm/sub", "shape": [1, 1, 1, 192], "dtype": "float32"}, {"name": "StatefulPartitionedCall/functional_1/inception_v3_1/conv2d_63_1/convolution/merged_input", "shape": [7, 1, 192, 192], "dtype": "float32"}, {"name": "StatefulPartitionedCall/functional_1/inception_v3_1/batch_normalization_63_1/batchnorm/sub", "shape": [1, 1, 1, 192], "dtype": "float32"}, {"name": "StatefulPartitionedCall/functional_1/inception_v3_1/conv2d_64_1/convolution/merged_input", "shape": [1, 1, 768, 192], "dtype": "float32"}, {"name": "StatefulPartitionedCall/functional_1/inception_v3_1/batch_normalization_64_1/batchnorm/sub", "shape": [1, 1, 1, 192], "dtype": "float32"}, {"name": "StatefulPartitionedCall/functional_1/inception_v3_1/conv2d_65_1/convolution/merged_input", "shape": [7, 1, 192, 192], "dtype": "float32"}, {"name": "StatefulPartitionedCall/functional_1/inception_v3_1/batch_normalization_65_1/batchnorm/sub", "shape": [1, 1, 1, 192], "dtype": "float32"}, {"name": "StatefulPartitionedCall/functional_1/inception_v3_1/conv2d_66_1/convolution/merged_input", "shape": [1, 7, 192, 192], "dtype": "float32"}, {"name": "StatefulPartitionedCall/functional_1/inception_v3_1/batch_normalization_66_1/batchnorm/sub", "shape": [1, 1, 1, 192], "dtype": "float32"}, {"name": "StatefulPartitionedCall/functional_1/inception_v3_1/conv2d_67_1/convolution/merged_input", "shape": [7, 1, 192, 192], "dtype": "float32"}, {"name": "StatefulPartitionedCall/functional_1/inception_v3_1/batch_normalization_67_1/batchnorm/sub", "shape": [1, 1, 1, 192], "dtype": "float32"}, {"name": "StatefulPartitionedCall/functional_1/inception_v3_1/conv2d_68_1/convolution/merged_input", "shape": [1, 7, 192, 192], "dtype": "float32"}, {"name": "StatefulPartitionedCall/functional_1/inception_v3_1/batch_normalization_68_1/batchnorm/sub", "shape": [1, 1, 1, 192], "dtype": "float32"}, {"name": "StatefulPartitionedCall/functional_1/inception_v3_1/conv2d_50_1/convolution/merged_input", "shape": [1, 1, 768, 192], "dtype": "float32"}, {"name": "StatefulPartitionedCall/functional_1/inception_v3_1/batch_normalization_50_1/batchnorm/sub", "shape": [1, 1, 1, 192], "dtype": "float32"}, {"name": "StatefulPartitionedCall/functional_1/inception_v3_1/conv2d_51_1/convolution/merged_input", "shape": [1, 1, 768, 160], "dtype": "float32"}, {"name": "StatefulPartitionedCall/functional_1/inception_v3_1/batch_normalization_51_1/batchnorm/sub", "shape": [1, 1, 1, 160], "dtype": "float32"}, {"name": "StatefulPartitionedCall/functional_1/inception_v3_1/conv2d_52_1/convolution/merged_input", "shape": [1, 7, 160, 160], "dtype": "float32"}, {"name": "StatefulPartitionedCall/functional_1/inception_v3_1/batch_normalization_52_1/batchnorm/sub", "shape": [1, 1, 1, 160], "dtype": "float32"}, {"name": "StatefulPartitionedCall/functional_1/inception_v3_1/conv2d_53_1/convolution/merged_input", "shape": [7, 1, 160, 192], "dtype": "float32"}, {"name": "StatefulPartitionedCall/functional_1/inception_v3_1/batch_normalization_53_1/batchnorm/sub", "shape": [1, 1, 1, 192], "dtype": "float32"}, {"name": "StatefulPartitionedCall/functional_1/inception_v3_1/conv2d_54_1/convolution/merged_input", "shape": [1, 1, 768, 160], "dtype": "float32"}, {"name": "StatefulPartitionedCall/functional_1/inception_v3_1/batch_normalization_54_1/batchnorm/sub", "shape": [1, 1, 1, 160], "dtype": "float32"}, {"name": "StatefulPartitionedCall/functional_1/inception_v3_1/conv2d_55_1/convolution/merged_input", "shape": [7, 1, 160, 160], "dtype": "float32"}, {"name": "StatefulPartitionedCall/functional_1/inception_v3_1/batch_normalization_55_1/batchnorm/sub", "shape": [1, 1, 1, 160], "dtype": "float32"}, {"name": "StatefulPartitionedCall/functional_1/inception_v3_1/conv2d_56_1/convolution/merged_input", "shape": [1, 7, 160, 160], "dtype": "float32"}, {"name": "StatefulPartitionedCall/functional_1/inception_v3_1/batch_normalization_56_1/batchnorm/sub", "shape": [1, 1, 1, 160], "dtype": "float32"}, {"name": "StatefulPartitionedCall/functional_1/inception_v3_1/conv2d_57_1/convolution/merged_input", "shape": [7, 1, 160, 160], "dtype": "float32"}, {"name": "StatefulPartitionedCall/functional_1/inception_v3_1/batch_normalization_57_1/batchnorm/sub", "shape": [1, 1, 1, 160], "dtype": "float32"}, {"name": "StatefulPartitionedCall/functional_1/inception_v3_1/conv2d_58_1/convolution/merged_input", "shape": [1, 7, 160, 192], "dtype": "float32"}, {"name": "StatefulPartitionedCall/functional_1/inception_v3_1/batch_normalization_58_1/batchnorm/sub", "shape": [1, 1, 1, 192], "dtype": "float32"}, {"name": "StatefulPartitionedCall/functional_1/inception_v3_1/conv2d_40_1/convolution/merged_input", "shape": [1, 1, 768, 192], "dtype": "float32"}, {"name": "StatefulPartitionedCall/functional_1/inception_v3_1/batch_normalization_40_1/batchnorm/sub", "shape": [1, 1, 1, 192], "dtype": "float32"}, {"name": "StatefulPartitionedCall/functional_1/inception_v3_1/conv2d_41_1/convolution/merged_input", "shape": [1, 1, 768, 160], "dtype": "float32"}, {"name": "StatefulPartitionedCall/functional_1/inception_v3_1/batch_normalization_41_1/batchnorm/sub", "shape": [1, 1, 1, 160], "dtype": "float32"}, {"name": "StatefulPartitionedCall/functional_1/inception_v3_1/conv2d_42_1/convolution/merged_input", "shape": [1, 7, 160, 160], "dtype": "float32"}, {"name": "StatefulPartitionedCall/functional_1/inception_v3_1/batch_normalization_42_1/batchnorm/sub", "shape": [1, 1, 1, 160], "dtype": "float32"}, {"name": "StatefulPartitionedCall/functional_1/inception_v3_1/conv2d_43_1/convolution/merged_input", "shape": [7, 1, 160, 192], "dtype": "float32"}, {"name": "StatefulPartitionedCall/functional_1/inception_v3_1/batch_normalization_43_1/batchnorm/sub", "shape": [1, 1, 1, 192], "dtype": "float32"}, {"name": "StatefulPartitionedCall/functional_1/inception_v3_1/conv2d_44_1/convolution/merged_input", "shape": [1, 1, 768, 160], "dtype": "float32"}, {"name": "StatefulPartitionedCall/functional_1/inception_v3_1/batch_normalization_44_1/batchnorm/sub", "shape": [1, 1, 1, 160], "dtype": "float32"}, {"name": "StatefulPartitionedCall/functional_1/inception_v3_1/conv2d_45_1/convolution/merged_input", "shape": [7, 1, 160, 160], "dtype": "float32"}, {"name": "StatefulPartitionedCall/functional_1/inception_v3_1/batch_normalization_45_1/batchnorm/sub", "shape": [1, 1, 1, 160], "dtype": "float32"}, {"name": "StatefulPartitionedCall/functional_1/inception_v3_1/conv2d_46_1/convolution/merged_input", "shape": [1, 7, 160, 160], "dtype": "float32"}, {"name": "StatefulPartitionedCall/functional_1/inception_v3_1/batch_normalization_46_1/batchnorm/sub", "shape": [1, 1, 1, 160], "dtype": "float32"}, {"name": "StatefulPartitionedCall/functional_1/inception_v3_1/conv2d_47_1/convolution/merged_input", "shape": [7, 1, 160, 160], "dtype": "float32"}, {"name": "StatefulPartitionedCall/functional_1/inception_v3_1/batch_normalization_47_1/batchnorm/sub", "shape": [1, 1, 1, 160], "dtype": "float32"}, {"name": "StatefulPartitionedCall/functional_1/inception_v3_1/conv2d_48_1/convolution/merged_input", "shape": [1, 7, 160, 192], "dtype": "float32"}, {"name": "StatefulPartitionedCall/functional_1/inception_v3_1/batch_normalization_48_1/batchnorm/sub", "shape": [1, 1, 1, 192], "dtype": "float32"}, {"name": "StatefulPartitionedCall/functional_1/inception_v3_1/conv2d_30_1/convolution/merged_input", "shape": [1, 1, 768, 192], "dtype": "float32"}, {"name": "StatefulPartitionedCall/functional_1/inception_v3_1/batch_normalization_30_1/batchnorm/sub", "shape": [1, 1, 1, 192], "dtype": "float32"}, {"name": "StatefulPartitionedCall/functional_1/inception_v3_1/conv2d_31_1/convolution/merged_input", "shape": [1, 1, 768, 128], "dtype": "float32"}, {"name": "StatefulPartitionedCall/functional_1/inception_v3_1/batch_normalization_31_1/batchnorm/sub", "shape": [1, 1, 1, 128], "dtype": "float32"}, {"name": "StatefulPartitionedCall/functional_1/inception_v3_1/conv2d_32_1/convolution/merged_input", "shape": [1, 7, 128, 128], "dtype": "float32"}, {"name": "StatefulPartitionedCall/functional_1/inception_v3_1/batch_normalization_32_1/batchnorm/sub", "shape": [1, 1, 1, 128], "dtype": "float32"}, {"name": "StatefulPartitionedCall/functional_1/inception_v3_1/conv2d_33_1/convolution/merged_input", "shape": [7, 1, 128, 192], "dtype": "float32"}, {"name": "StatefulPartitionedCall/functional_1/inception_v3_1/batch_normalization_33_1/batchnorm/sub", "shape": [1, 1, 1, 192], "dtype": "float32"}, {"name": "StatefulPartitionedCall/functional_1/inception_v3_1/conv2d_34_1/convolution/merged_input", "shape": [1, 1, 768, 128], "dtype": "float32"}, {"name": "StatefulPartitionedCall/functional_1/inception_v3_1/batch_normalization_34_1/batchnorm/sub", "shape": [1, 1, 1, 128], "dtype": "float32"}, {"name": "StatefulPartitionedCall/functional_1/inception_v3_1/conv2d_35_1/convolution/merged_input", "shape": [7, 1, 128, 128], "dtype": "float32"}, {"name": "StatefulPartitionedCall/functional_1/inception_v3_1/batch_normalization_35_1/batchnorm/sub", "shape": [1, 1, 1, 128], "dtype": "float32"}, {"name": "StatefulPartitionedCall/functional_1/inception_v3_1/conv2d_36_1/convolution/merged_input", "shape": [1, 7, 128, 128], "dtype": "float32"}, {"name": "StatefulPartitionedCall/functional_1/inception_v3_1/batch_normalization_36_1/batchnorm/sub", "shape": [1, 1, 1, 128], "dtype": "float32"}, {"name": "StatefulPartitionedCall/functional_1/inception_v3_1/conv2d_37_1/convolution/merged_input", "shape": [7, 1, 128, 128], "dtype": "float32"}, {"name": "StatefulPartitionedCall/functional_1/inception_v3_1/batch_normalization_37_1/batchnorm/sub", "shape": [1, 1, 1, 128], "dtype": "float32"}, {"name": "StatefulPartitionedCall/functional_1/inception_v3_1/conv2d_38_1/convolution/merged_input", "shape": [1, 7, 128, 192], "dtype": "float32"}, {"name": "StatefulPartitionedCall/functional_1/inception_v3_1/batch_normalization_38_1/batchnorm/sub", "shape": [1, 1, 1, 192], "dtype": "float32"}, {"name": "StatefulPartitionedCall/functional_1/inception_v3_1/conv2d_26_1/convolution/merged_input", "shape": [3, 3, 288, 384], "dtype": "float32"}, {"name": "StatefulPartitionedCall/functional_1/inception_v3_1/batch_normalization_26_1/batchnorm/sub", "shape": [1, 1, 1, 384], "dtype": "float32"}, {"name": "StatefulPartitionedCall/functional_1/inception_v3_1/conv2d_27_1/convolution/merged_input", "shape": [1, 1, 288, 64], "dtype": "float32"}, {"name": "StatefulPartitionedCall/functional_1/inception_v3_1/batch_normalization_27_1/batchnorm/sub", "shape": [1, 1, 1, 64], "dtype": "float32"}, {"name": "StatefulPartitionedCall/functional_1/inception_v3_1/conv2d_28_1/convolution/merged_input", "shape": [3, 3, 64, 96], "dtype": "float32"}, {"name": "StatefulPartitionedCall/functional_1/inception_v3_1/batch_normalization_28_1/batchnorm/sub", "shape": [1, 1, 1, 96], "dtype": "float32"}, {"name": "StatefulPartitionedCall/functional_1/inception_v3_1/conv2d_29_1/convolution/merged_input", "shape": [3, 3, 96, 96], "dtype": "float32"}, {"name": "StatefulPartitionedCall/functional_1/inception_v3_1/batch_normalization_29_1/batchnorm/sub", "shape": [1, 1, 1, 96], "dtype": "float32"}, {"name": "StatefulPartitionedCall/functional_1/inception_v3_1/conv2d_19_1/convolution/merged_input", "shape": [1, 1, 288, 64], "dtype": "float32"}, {"name": "StatefulPartitionedCall/functional_1/inception_v3_1/batch_normalization_19_1/batchnorm/sub", "shape": [1, 1, 1, 64], "dtype": "float32"}, {"name": "StatefulPartitionedCall/functional_1/inception_v3_1/conv2d_20_1/convolution/merged_input", "shape": [1, 1, 288, 48], "dtype": "float32"}, {"name": "StatefulPartitionedCall/functional_1/inception_v3_1/batch_normalization_20_1/batchnorm/sub", "shape": [1, 1, 1, 48], "dtype": "float32"}, {"name": "StatefulPartitionedCall/functional_1/inception_v3_1/conv2d_21_1/convolution/merged_input", "shape": [5, 5, 48, 64], "dtype": "float32"}, {"name": "StatefulPartitionedCall/functional_1/inception_v3_1/batch_normalization_21_1/batchnorm/sub", "shape": [1, 1, 1, 64], "dtype": "float32"}, {"name": "StatefulPartitionedCall/functional_1/inception_v3_1/conv2d_22_1/convolution/merged_input", "shape": [1, 1, 288, 64], "dtype": "float32"}, {"name": "StatefulPartitionedCall/functional_1/inception_v3_1/batch_normalization_22_1/batchnorm/sub", "shape": [1, 1, 1, 64], "dtype": "float32"}, {"name": "StatefulPartitionedCall/functional_1/inception_v3_1/conv2d_23_1/convolution/merged_input", "shape": [3, 3, 64, 96], "dtype": "float32"}, {"name": "StatefulPartitionedCall/functional_1/inception_v3_1/batch_normalization_23_1/batchnorm/sub", "shape": [1, 1, 1, 96], "dtype": "float32"}, {"name": "StatefulPartitionedCall/functional_1/inception_v3_1/conv2d_24_1/convolution/merged_input", "shape": [3, 3, 96, 96], "dtype": "float32"}, {"name": "StatefulPartitionedCall/functional_1/inception_v3_1/batch_normalization_24_1/batchnorm/sub", "shape": [1, 1, 1, 96], "dtype": "float32"}, {"name": "StatefulPartitionedCall/functional_1/inception_v3_1/conv2d_12_1/convolution/merged_input", "shape": [1, 1, 256, 64], "dtype": "float32"}, {"name": "StatefulPartitionedCall/functional_1/inception_v3_1/batch_normalization_12_1/batchnorm/sub", "shape": [1, 1, 1, 64], "dtype": "float32"}, {"name": "StatefulPartitionedCall/functional_1/inception_v3_1/conv2d_13_1/convolution/merged_input", "shape": [1, 1, 256, 48], "dtype": "float32"}, {"name": "StatefulPartitionedCall/functional_1/inception_v3_1/batch_normalization_13_1/batchnorm/sub", "shape": [1, 1, 1, 48], "dtype": "float32"}, {"name": "StatefulPartitionedCall/functional_1/inception_v3_1/conv2d_14_1/convolution/merged_input", "shape": [5, 5, 48, 64], "dtype": "float32"}, {"name": "StatefulPartitionedCall/functional_1/inception_v3_1/batch_normalization_14_1/batchnorm/sub", "shape": [1, 1, 1, 64], "dtype": "float32"}, {"name": "StatefulPartitionedCall/functional_1/inception_v3_1/conv2d_15_1/convolution/merged_input", "shape": [1, 1, 256, 64], "dtype": "float32"}, {"name": "StatefulPartitionedCall/functional_1/inception_v3_1/batch_normalization_15_1/batchnorm/sub", "shape": [1, 1, 1, 64], "dtype": "float32"}, {"name": "StatefulPartitionedCall/functional_1/inception_v3_1/conv2d_16_1/convolution/merged_input", "shape": [3, 3, 64, 96], "dtype": "float32"}, {"name": "StatefulPartitionedCall/functional_1/inception_v3_1/batch_normalization_16_1/batchnorm/sub", "shape": [1, 1, 1, 96], "dtype": "float32"}, {"name": "StatefulPartitionedCall/functional_1/inception_v3_1/conv2d_17_1/convolution/merged_input", "shape": [3, 3, 96, 96], "dtype": "float32"}, {"name": "StatefulPartitionedCall/functional_1/inception_v3_1/batch_normalization_17_1/batchnorm/sub", "shape": [1, 1, 1, 96], "dtype": "float32"}, {"name": "StatefulPartitionedCall/functional_1/inception_v3_1/conv2d_5_1/convolution/merged_input", "shape": [1, 1, 192, 64], "dtype": "float32"}, {"name": "StatefulPartitionedCall/functional_1/inception_v3_1/batch_normalization_5_1/batchnorm/sub", "shape": [1, 1, 1, 64], "dtype": "float32"}, {"name": "StatefulPartitionedCall/functional_1/inception_v3_1/conv2d_6_1/convolution/merged_input", "shape": [1, 1, 192, 48], "dtype": "float32"}, {"name": "StatefulPartitionedCall/functional_1/inception_v3_1/batch_normalization_6_1/batchnorm/sub", "shape": [1, 1, 1, 48], "dtype": "float32"}, {"name": "StatefulPartitionedCall/functional_1/inception_v3_1/conv2d_7_1/convolution/merged_input", "shape": [5, 5, 48, 64], "dtype": "float32"}, {"name": "StatefulPartitionedCall/functional_1/inception_v3_1/batch_normalization_7_1/batchnorm/sub", "shape": [1, 1, 1, 64], "dtype": "float32"}, {"name": "StatefulPartitionedCall/functional_1/inception_v3_1/conv2d_8_1/convolution/merged_input", "shape": [1, 1, 192, 64], "dtype": "float32"}, {"name": "StatefulPartitionedCall/functional_1/inception_v3_1/batch_normalization_8_1/batchnorm/sub", "shape": [1, 1, 1, 64], "dtype": "float32"}, {"name": "StatefulPartitionedCall/functional_1/inception_v3_1/conv2d_9_1/convolution/merged_input", "shape": [3, 3, 64, 96], "dtype": "float32"}, {"name": "StatefulPartitionedCall/functional_1/inception_v3_1/batch_normalization_9_1/batchnorm/sub", "shape": [1, 1, 1, 96], "dtype": "float32"}, {"name": "StatefulPartitionedCall/functional_1/inception_v3_1/conv2d_10_1/convolution/merged_input", "shape": [3, 3, 96, 96], "dtype": "float32"}, {"name": "StatefulPartitionedCall/functional_1/inception_v3_1/batch_normalization_10_1/batchnorm/sub", "shape": [1, 1, 1, 96], "dtype": "float32"}, {"name": "StatefulPartitionedCall/functional_1/inception_v3_1/conv2d_1/convolution/merged_input", "shape": [3, 3, 3, 32], "dtype": "float32"}, {"name": "StatefulPartitionedCall/functional_1/inception_v3_1/batch_normalization_1/batchnorm/sub", "shape": [1, 1, 1, 32], "dtype": "float32"}, {"name": "StatefulPartitionedCall/functional_1/inception_v3_1/conv2d_1_2/convolution/merged_input", "shape": [3, 3, 32, 32], "dtype": "float32"}, {"name": "StatefulPartitionedCall/functional_1/inception_v3_1/batch_normalization_1_2/batchnorm/sub", "shape": [1, 1, 1, 32], "dtype": "float32"}, {"name": "StatefulPartitionedCall/functional_1/inception_v3_1/conv2d_2_1/convolution/merged_input", "shape": [3, 3, 32, 64], "dtype": "float32"}, {"name": "StatefulPartitionedCall/functional_1/inception_v3_1/batch_normalization_2_1/batchnorm/sub", "shape": [1, 1, 1, 64], "dtype": "float32"}, {"name": "StatefulPartitionedCall/functional_1/inception_v3_1/conv2d_3_1/convolution/merged_input", "shape": [1, 1, 64, 80], "dtype": "float32"}, {"name": "StatefulPartitionedCall/functional_1/inception_v3_1/batch_normalization_3_1/batchnorm/sub", "shape": [1, 1, 1, 80], "dtype": "float32"}, {"name": "StatefulPartitionedCall/functional_1/inception_v3_1/conv2d_4_1/convolution/merged_input", "shape": [3, 3, 80, 192], "dtype": "float32"}, {"name": "StatefulPartitionedCall/functional_1/inception_v3_1/batch_normalization_4_1/batchnorm/sub", "shape": [1, 1, 1, 192], "dtype": "float32"}, {"name": "StatefulPartitionedCall/functional_1/inception_v3_1/conv2d_11_1/convolution/merged_input", "shape": [1, 1, 192, 32], "dtype": "float32"}, {"name": "StatefulPartitionedCall/functional_1/inception_v3_1/batch_normalization_11_1/batchnorm/sub", "shape": [1, 1, 1, 32], "dtype": "float32"}, {"name": "StatefulPartitionedCall/functional_1/inception_v3_1/mixed0_1/concat/axis", "shape": [], "dtype": "int32"}, {"name": "StatefulPartitionedCall/functional_1/inception_v3_1/conv2d_18_1/convolution/merged_input", "shape": [1, 1, 256, 64], "dtype": "float32"}, {"name": "StatefulPartitionedCall/functional_1/inception_v3_1/batch_normalization_18_1/batchnorm/sub", "shape": [1, 1, 1, 64], "dtype": "float32"}, {"name": "StatefulPartitionedCall/functional_1/inception_v3_1/mixed1_1/concat/axis", "shape": [], "dtype": "int32"}, {"name": "StatefulPartitionedCall/functional_1/inception_v3_1/conv2d_25_1/convolution/merged_input", "shape": [1, 1, 288, 64], "dtype": "float32"}, {"name": "StatefulPartitionedCall/functional_1/inception_v3_1/batch_normalization_25_1/batchnorm/sub", "shape": [1, 1, 1, 64], "dtype": "float32"}, {"name": "StatefulPartitionedCall/functional_1/inception_v3_1/mixed2_1/concat/axis", "shape": [], "dtype": "int32"}, {"name": "StatefulPartitionedCall/functional_1/inception_v3_1/mixed3_1/concat/axis", "shape": [], "dtype": "int32"}, {"name": "StatefulPartitionedCall/functional_1/inception_v3_1/conv2d_39_1/convolution/merged_input", "shape": [1, 1, 768, 192], "dtype": "float32"}, {"name": "StatefulPartitionedCall/functional_1/inception_v3_1/batch_normalization_39_1/batchnorm/sub", "shape": [1, 1, 1, 192], "dtype": "float32"}, {"name": "StatefulPartitionedCall/functional_1/inception_v3_1/mixed4_1/concat/axis", "shape": [], "dtype": "int32"}, {"name": "StatefulPartitionedCall/functional_1/inception_v3_1/conv2d_49_1/convolution/merged_input", "shape": [1, 1, 768, 192], "dtype": "float32"}, {"name": "StatefulPartitionedCall/functional_1/inception_v3_1/batch_normalization_49_1/batchnorm/sub", "shape": [1, 1, 1, 192], "dtype": "float32"}, {"name": "StatefulPartitionedCall/functional_1/inception_v3_1/mixed5_1/concat/axis", "shape": [], "dtype": "int32"}, {"name": "StatefulPartitionedCall/functional_1/inception_v3_1/conv2d_59_1/convolution/merged_input", "shape": [1, 1, 768, 192], "dtype": "float32"}, {"name": "StatefulPartitionedCall/functional_1/inception_v3_1/batch_normalization_59_1/batchnorm/sub", "shape": [1, 1, 1, 192], "dtype": "float32"}, {"name": "StatefulPartitionedCall/functional_1/inception_v3_1/mixed6_1/concat/axis", "shape": [], "dtype": "int32"}, {"name": "StatefulPartitionedCall/functional_1/inception_v3_1/conv2d_69_1/convolution/merged_input", "shape": [1, 1, 768, 192], "dtype": "float32"}, {"name": "StatefulPartitionedCall/functional_1/inception_v3_1/batch_normalization_69_1/batchnorm/sub", "shape": [1, 1, 1, 192], "dtype": "float32"}, {"name": "StatefulPartitionedCall/functional_1/inception_v3_1/mixed7_1/concat/axis", "shape": [], "dtype": "int32"}, {"name": "StatefulPartitionedCall/functional_1/inception_v3_1/mixed8_1/concat/axis", "shape": [], "dtype": "int32"}, {"name": "StatefulPartitionedCall/functional_1/inception_v3_1/conv2d_84_1/convolution/merged_input", "shape": [1, 1, 1280, 192], "dtype": "float32"}, {"name": "StatefulPartitionedCall/functional_1/inception_v3_1/batch_normalization_84_1/batchnorm/sub", "shape": [1, 1, 1, 192], "dtype": "float32"}, {"name": "StatefulPartitionedCall/functional_1/inception_v3_1/mixed9_1/concat/axis", "shape": [], "dtype": "int32"}, {"name": "StatefulPartitionedCall/functional_1/inception_v3_1/conv2d_93_1/convolution/merged_input", "shape": [1, 1, 2048, 192], "dtype": "float32"}, {"name": "StatefulPartitionedCall/functional_1/inception_v3_1/batch_normalization_93_1/batchnorm/sub", "shape": [1, 1, 1, 192], "dtype": "float32"}, {"name": "StatefulPartitionedCall/functional_1/inception_v3_1/mixed10_1/concat/axis", "shape": [], "dtype": "int32"}, {"name": "StatefulPartitionedCall/functional_1/global_average_pooling2d_1/Mean/reduction_indices", "shape": [2], "dtype": "int32"}, {"name": "StatefulPartitionedCall/functional_1/dense_1/Cast/ReadVariableOp", "shape": [2048, 256], "dtype": "float32"}, {"name": "StatefulPartitionedCall/functional_1/dense_1/BiasAdd/ReadVariableOp", "shape": [256], "dtype": "float32"}, {"name": "StatefulPartitionedCall/functional_1/dense_1_2/Cast/ReadVariableOp", "shape": [256, 2], "dtype": "float32"}, {"name": "StatefulPartitionedCall/functional_1/dense_1_2/BiasAdd/ReadVariableOp", "shape": [2], "dtype": "float32"}]}]}